data/AE_dmdt_K5_beta1e-05_decvarFalse_seed1234_radamTrue_lr0.001_bs64.ckpt (torch, 620126 bytes, 22 tensors)

preprocessor.dt_edges f4 [11]
0.04 0.125 0.33333334 2.0 20.0 50.0 100.0 200.0
499.99997 999.99994 2500.0
00000000: 0ad7 233d 0000 003e abaa aa3e 0000 0040
00000010: 0000 a041 0000 4842 0000 c842 0000 4843
00000020: ffff f943 ffff 7944 0040 1c45

preprocessor.dm_edges f4 [21]
0.0 0.15789473 0.31578946 0.4736842 0.6315789 0.78947365 0.9473684 1.1052631
1.2631578 1.4210526 1.5789474 1.7368422 1.8947369 2.0526316 2.2105265 2.368421
2.5263157 2.6842105 2.8421054 3.0 inf
00000000: 0000 0000 28af 213e 28af a13e bc86 f23e
00000010: 28af 213f f21a 4a3f bc86 723f 4379 8d3f
00000020: 28af a13f 0de5 b53f f31a ca3f d850 de3f
00000030: bd86 f23f 515e 0340 4479 0d40 3694 1740
00000040: 28af 2140 1bca 2b40 0ee5 3540 0000 4040
00000050: 0000 807f

encoder.0.weight f4 [128, 200]
0.17240919 -0.2189645 0.23110476 -0.071856454 -0.07682653 -0.0046726014 -0.24853194 -0.115046404
0.3043065 0.044937335 0.05680667 -0.27373484 0.30365357 -0.015974062 0.12141278 0.13861872
0.1287715 -0.15905395 0.16141875 -0.07601279 -0.07590438 0.108522385 0.22174728 -0.15891443
-0.22422826 -0.18662365 0.10040973 -0.41794652 -0.09503121 0.15448874 -0.28987047 0.29583028
-0.020521997 0.14334022 0.08508449 -0.3316857 0.15759513 -0.11985468 -0.12729679 0.37893775
0.1851197 0.18857205 -0.05887169 0.3467536 0.14770812 0.0628916 0.20051888 0.14999087
0.015269822 -0.11379944 0.03217762 0.2286866 -0.0701509 0.2058603 -0.11128028 0.10058283
0.2883861 0.45056725 -0.08725988 0.00021495321 -0.005960846 0.21980192 0.28054637 0.048934724
-0.012715851 0.02929803 0.16199781 0.48484197 -0.03513816 -0.04412743 -0.084768206 0.19104628
0.15873744 0.08380987 0.07357377 0.12640417 -0.023773307 0.24548589 -0.44365755 -0.12312215
-0.10581443 0.030554269 0.06285831 -0.1107211 0.11996517 0.30686378 -0.16881548 -0.018437343
-0.24930121 -0.28557435 -0.097471006 0.047847968 0.0061401986 -0.33443192 -0.10090348 0.059281927
-0.23628107 0.18225561 -0.6259822 0.20741867 -0.019525183 0.2743433 -0.27196395 -0.33618793
-0.02412651 -0.24491028 -0.4431624 0.434541 -0.35219938 0.20186716 0.14801002 0.020266445
-0.29121286 -0.30920914 -0.17416318 -0.12846462 -0.46550044 0.030787177 -0.26942623 -0.17897134
-0.15546924 0.0053549977 -0.3215839 -0.21315496 0.0027581092 0.21992327 -0.23840602 -0.0006984285
-0.2931792 0.03713184 -0.16009323 -0.09038079 -0.2589382 -0.4188135 0.14954887 0.21774505
0.23670068 -0.08693419 -0.16595832 -0.029086633 0.015949309 0.33235258 -0.0044254414 -0.19182476
0.08244302 -0.040372778 -0.0964759 -0.6435757 -0.36818406 0.19956265 0.03465479 -0.20415285
0.08748584 -0.3408196 0.32885784 -0.14711991 0.26677766 -0.5164711 -0.27286378 0.13518068
-0.3432691 0.17454764 -0.29631212 -0.14429286 -0.23476209 -0.019490542 -0.20916757 -0.5427594
-0.2024736 -0.03985294 -0.5228547 0.122728616 -0.23567532 -0.28475896 -0.21222696 -0.0712483
0.0058149365 -0.56379503 -0.12545586 -0.018443953 -0.16516834 -0.037793793 0.015813496 -0.48623452
-0.12118991 0.21738446 -0.046518434 -0.3929131 0.09833513 -0.14958209 -0.49775347 0.35522017
-0.12977391 0.125645 0.02571573 0.32422906 -0.1060047 0.23401815 -0.04619747 -0.039554507
0.04706319 0.033994887 -0.07455879 -0.17026357 0.20578985 -0.020618314 0.06502442 -0.10115408
-0.23262244 0.09764059 -0.33521292 -0.17183957 0.60717624 0.42453516 0.025960827 0.021652112
-0.0061093876 -0.032172594 -0.1106683 0.13105324 0.18023738 -0.20750524 0.08505046 0.048374843
0.06352085 -0.19899544 0.20791437 -0.14497253 -0.05126098 0.025535718 -0.024006896 -0.31526265
-0.2489088 -0.54502684 -0.030249536 0.054498404 -0.07967579 -0.46804672 0.025939787 0.20338692
-0.15330097 -0.05816424 -0.025244603 -0.49205604 -0.15683696 0.043425623 -0.15605295 -0.20401444
-0.25556663 -0.040156577 -0.12724248 -0.25554597 -0.18875664 -0.47183248 0.13613094 0.26581
00000000: 098c 303e 3b38 60be baa6 6c3e 7a29 93bd
00000010: 3a57 9dbd 9f1c 99bb 287f 7ebe 739d ebbd
00000020: 10ce 9b3e 3610 383d 1cae 683d f926 8cbe
00000030: 7b78 9b3e 09dc 82bc 43a7 f83d 11f2 0d3e
00000040: addc 033e 0adf 22be f54a 253e 98ac 9bbd
00000050: c173 9bbd fc40 de3d b811 633e 77ba 22be
00000060: 189c 65be 451a 3fbe 9ea3 cd3d 16fd d5be
00000070: b99f c2bd 4c32 1e3e e769 94be 1177 973e
00000080: bf1d a8bc c7c7 123e c740 ae3d b5d2 a9be
00000090: 9e60 213e 5f76 f5bd 175a 02be 2104 c23e
000000a0: 0590 3d3e 0819 413e 7123 71bd b089 b13e
000000b0: cc40 173e 50cd 803d d254 4d3e 3597 193e
000000c0: 472e 7a3c ae0f e9bd aecc 033d d22c 6a3e
000000d0: 46ab 8fbd 0bcd 523e eae6 e3bd 5ffe cd3d
000000e0: 58a7 933e c0b0 e63e 4fb5 b2bd 1065 6139
000000f0: 3353 c3bb c113 613e c6a3 8f3e c76f 483d
00000100: 2556 50bc 6c02 f03c c1e2 253e 353d f83e
00000110: 08ed 0fbd f7be 34bd f49a adbd a3a1 433e
00000120: 118c 223e 82a4 ab3d d8ad 963d 1870 013e
00000130: 3dc0 c2bc a760 7b3e 1527 e3be 7727 fcbd
00000140: 3cb5 d8bd f24c fa3c dcbb 803d bec1 e2bd
00000150: 4db0 f53d 401d 9d3e f7dd 2cbe e909 97bc
00000160: d148 7fbe cd36 92be e19e c7bd 3bfc 433d
00000170: b833 c93b a93a abbe 7ca6 cebd 9bd1 723d
00000180: aaf3 71be 37a1 3a3e 5f40 20bf 8f65 543e
00000190: 47f3 9fbc ba76 8c3e dc3e 8bbe d320 acbe
000001a0: f5a4 c5bc c3c9 7abe 2fe6 e2be 287c de3e
000001b0: 7a53 b4be 44b6 4e3e f08f 173e d105 a63c
000001c0: da19 95be a950 9ebe d557 32be 3b8c 03be
000001d0: 1356 eebe 6435 fc3c 3cf2 89be 4344 37be
000001e0: 5433 1fbe fa78 af3b a5a6 a4be 4b45 5abe
000001f0: 65c1 343b 9133 613e b520 74be be16 37ba
00000200: 961b 96be 8e17 183d 7bef 23be 9019 b9bd
00000210: 8c93 84be b96e d6be 5723 193e 8ff8 5e3e
00000220: aa61 723e 8d0a b2bd faf0 29be 1747 eebc
00000230: 20a8 823c 1e2a aa3e 4b03 91bb b66d 44be
00000240: e3d7 a83d ed5d 25bd 2895 c5bd 61c1 24bf
00000250: 9f82 bcbe 275a 4c3e 2ef2 0d3d 720d 51be
00000260: c72b b33d e87f aebe 0e60 a83e 9aa6 16be
00000270: 1597 883e 7337 04bf cdb4 8bbe ce6c 0a3e
00000280: f8c0 afbe 9ebc 323e 39b6 97be 82c1 13be
00000290: 7965 70be a1aa 9fbc 0630 56be 48f2 0abf
000002a0: 3d55 4fbe d63c 23bd ced9 05bf 2459 fb3d
000002b0: df54 71be edcb 91be 0652 59be a1ea 91bd
000002c0: 398b be3b df54 10bf 8077 00be c617 97bc
000002d0: e421 29be aacd 1abd 4e8b 813c bbf3 f8be
000002e0: 6a32 f8bd 089a 5e3e 1d8a 3ebd e82b c9be
000002f0: ee63 c93d 0c2c 19be 8bd9 febe 6bdf b53e
00000300: 74e3 04be 15a9 003e cba9 d23c 5a01 a63e
00000310: fe18 d9bd 74a2 6f3e 8f39 3dbd e803 22bd
00000320: 55c5 403d 393e 0b3d 47b2 98bd 9359 2ebe
00000330: 93ba 523e bde7 a8bc 862b 853d df29 cfbd
00000340: 9434 6ebe caf7 c73d 07a1 abbe b6f6 2fbe
00000350: e76f 1b3f ac5c d93e cdab d43c c55f b13c
00000360: 4231 c8bb 69c7 03bd 10a6 e2bd d232 063e
00000370: 2690 383e 417c 54be f02e ae3d b324 463d
00000380: 3817 823d 76c5 4bbe 81e7 543e ae73 14be
00000390: 09f7 51bd 4830 d13c 1caa c4bc 1b6a a1be
000003a0: f3e1 7ebe e186 0bbf e0cd f7bc b839 5f3d
000003b0: 102d a3bd d2a3 efbe ad7f d43c a944 503e
000003c0: eefa 1cbe a03d 6ebd c5cd cebc c5ee fbbe
000003d0: de99 20be 11df 313d 58cc 1fbe 29e9 50be
000003e0: a1d9 82be 397b 24bd da4b 02be ecd6 82be
000003f0: 6c49 41be 0794 f1be e965 0b3e 4018 883e

encoder.0.bias f4 [128]
-0.028740296 -0.010760051 0.0740245 0.021597683 0.03579524 0.011424316 0.0064938827 -0.018600676
0.02259608 -0.04389798 0.0039640064 0.08108563 0.041789286 0.0789532 -0.049414337 0.060844243
-0.052556053 0.027293788 -0.10847105 0.048488386 -0.0008612138 -0.06478452 -0.120222494 0.0007167888
-0.002141838 0.0016191062 0.022274746 0.030646916 -0.056374412 0.067528404 0.0076215616 -0.10139874
-0.04559221 0.03109213 -0.0045241495 -0.002781135 0.03062932 -0.0793862 0.061712224 0.01469338
0.007556562 0.079837784 0.06856875 0.0012492333 0.031919688 -0.020562446 -0.07416015 -0.045852095
0.033266757 -0.042078014 0.1384035 -0.11142497 -0.11837937 0.06683242 0.11911027 0.02278214
-0.030418318 -0.027162032 -0.11455944 0.11909169 -0.024741597 -0.05673117 0.011313766 -0.05319226
-0.035123803 0.050770387 -0.025986683 0.020455968 0.026798872 0.019590296 0.027691241 -0.06489235
0.047248006 0.0011479165 0.10586574 0.02207498 -0.011798609 -0.0021746964 -0.04916877 -0.025066137
-0.01458602 -0.002987659 0.017891824 -0.028588738 0.03724898 -0.05701987 0.08427118 -0.07700352
-0.02984302 -0.087793596 0.09796284 -0.0218964 0.019748166 -0.09886905 -0.07802918 0.030446628
0.024288854 -0.058147926 0.03373211 -0.03858306 -0.06449464 0.019467168 0.043541797 0.13520302
0.043674227 0.013923402 -0.06290686 -0.06200615 0.049430866 0.014924868 -0.016083524 -0.06788432
0.020570463 -0.023609985 -0.08699932 0.09112419 0.008195609 -0.034365106 -0.0757803 0.11964628
0.031668115 0.017279694 0.08130184 -0.0038264913 0.14108276 0.034103703 0.0047631674 -0.0031020534
00000000: c570 ebbc ed4a 30bc 289a 973d a0ed b03c
00000010: 089e 123d 0e2d 3b3c a3ca d43b 7260 98bc
00000020: 6a1b b93c 5ece 33bd 7fe4 813b 3910 a63d
00000030: 3e2b 2b3d 37b2 a13d b066 4abd d037 793d
00000040: 0445 57bd 3997 df3c 1226 debd c29b 463d
00000050: 14c3 61ba bfad 84bd 3637 f6bd e2e6 3b3a
00000060: 145e 0cbb 3038 d43a 8779 b63c 3e0f fb3c
00000070: dbe8 66bd 554c 8a3d 4bbe f93b 25aa cfbd
00000080: e6be 3abd ecb4 fe3c 513f 94bb b443 36bb
00000090: 57ea fa3c 3b95 a2bd f5c5 7c3d 81bc 703c
000000a0: 099d f73b fe81 a33d c66d 8c3d 50bd a33a
000000b0: 38be 023d 9372 a8bc 47e1 97bd 68cf 3bbd
000000c0: b942 083d ff59 2cbd a6b9 0d3e c632 e4bd
000000d0: e270 f2bd 70df 883d 16f0 f33d 9ca1 ba3c
000000e0: d62f f9bc e982 debc 249e eabd 58e6 f33d
000000f0: e4ae cabc f15e 68bd 605d 393c 21e0 59bd
00000100: fadd 0fbd 9cf4 4f3d 06e2 d4bc 4693 a73c
00000110: 4f89 db3c d47b a03c bed8 e23c 48e6 84bd
00000120: 2087 413d b075 963a 23d0 d83d 97d6 b43c
00000130: f44e 41bc 5a85 0ebb 3165 49bd 8057 cdbc
00000140: 34fa 6ebc 9acc 43bb e091 923c ee32 eabc
00000150: 6392 183d ab8d 69bd 5e96 ac3d 06b4 9dbd
00000160: 5979 f4bc 21cd b3bd bea0 c83d 1460 b3bc
00000170: e8c6 a13c db7b cabd c3cd 9fbd 356b f93c
00000180: 6bf9 c63c 852c 6ebd ae2a 0a3d 4509 1ebd
00000190: c415 84bd 9c79 9f3c e258 323d a972 0a3e
000001a0: bfe3 323d fb1e 643c 50d5 80bd 29fa 7dbd
000001b0: 0578 4a3d 6f87 743c 98c1 83bc ef06 8bbd
000001c0: 6383 a83c ba69 c1bc b32c b2bd 529f ba3d
000001d0: e046 063c 6dc2 0cbd b432 9bbd 1c09 f53d
000001e0: 6db6 013d 258e 8d3c 9481 a63d dfc5 7abb
000001f0: 0078 103e 53b0 0b3d 5814 9c3b d24b 4bbb

encoder.2.fc1.weight f4 [128, 128]
0.1011939 -0.23826733 -0.13317096 -0.15857476 -0.0062055415 -0.5485321 0.5602704 0.023434808
0.024650803 0.026582975 0.06432379 -0.07187027 -0.32734552 -0.04429085 -0.46183965 -0.08591536
0.1152456 0.21493573 -0.13315089 -0.20316672 -0.08549691 0.05250041 -0.0019666038 -0.10073498
0.09235121 0.34872788 0.01562191 0.5473005 -0.1973716 -0.08644252 -0.23134993 0.25936517
0.08945558 0.13737586 -0.29284352 -0.40084 -0.26659745 -0.09047789 -0.023684025 -0.015097976
0.10383612 -0.11519216 -0.16627668 -0.06347721 -0.16391411 0.11405196 0.0041931393 -0.09773486
-0.113757774 0.022897597 -0.119469106 0.07261662 -0.18833913 0.06911979 0.13373244 0.6069655
-0.09882751 0.010800141 0.06781962 -0.08238893 0.19653729 -0.13699323 0.052448027 -0.14749764
-0.1517254 -0.043939855 0.40400213 0.14635639 0.29208016 0.06377923 0.025513776 0.17339703
0.37214044 -0.12220322 0.028161261 -0.059615947 -0.3639596 0.2722502 -0.09154512 0.08206778
0.045181684 0.19641884 0.1258593 0.08384258 -0.4542864 0.2612252 0.27333525 0.14098908
0.19231355 0.090057634 -0.055157114 -0.075567774 0.15515032 -0.05731874 0.2268869 0.14111
-0.23610552 0.09473566 -0.061175477 0.0016006464 -0.26139536 -0.20462875 0.026128843 -0.3163212
-0.22658186 0.31781307 0.16427465 0.2978128 -0.34178972 -0.16546173 0.2163589 0.042291787
-0.5527757 -0.009833901 0.33124262 0.23594175 0.1284912 0.061867706 0.14820874 -0.3877575
-0.08996864 -0.12119377 -0.027247652 0.29161903 -0.39523846 0.009191682 -0.14253378 0.007590245
0.08515184 0.23890077 0.13485011 -0.07152491 -0.02300746 -0.27619332 -0.11611095 0.37358117
-0.13498834 -0.007200225 -0.19994903 0.13104331 -0.117540196 0.4827893 -0.14523755 0.011844687
-0.24572557 -0.011873014 0.11408815 -0.07026342 0.1733266 -0.1719897 -0.087077655 0.014316299
0.13122547 -0.27509597 -0.4749613 -0.074658215 -0.36212283 -0.2414802 0.049187813 -0.025058271
0.5364409 -0.104845904 -0.21363841 -0.09297337 -0.0580649 0.07216374 0.060247287 -0.13022982
0.35607427 -0.48240048 0.15366037 0.14491507 -0.110660784 -0.08574066 -0.12253722 -0.18507472
0.044737708 0.04548249 0.22526601 -0.25433493 0.13130091 -0.11177357 -0.27865332 -0.13094172
0.04686811 0.14310616 -0.2164094 -0.19077274 0.03687561 0.30040577 -0.04529169 -0.31680158
-0.06399087 -0.055710785 0.38453272 0.017229678 -0.15421313 -0.32687974 -0.37841117 -0.1696321
0.2261916 -0.15864101 0.120671876 0.20323323 0.034264375 -0.016377203 -0.11543288 -0.11110461
-0.064956665 0.36707225 0.33937052 0.071848825 -0.15075979 -0.15347524 0.110003635 0.0031059822
0.22547778 0.14285724 0.17425011 0.028907588 -0.32065016 0.16757537 -0.021154216 0.12143722
-0.02325982 0.070267126 -0.37485778 -0.20278981 -0.28758225 -0.39992172 -0.048446503 -0.22712451
-0.005416848 0.09260566 0.11854575 -0.13714223 0.012866984 0.095840104 0.11438443 0.14782268
-0.26036373 0.008973482 0.056011103 0.06206558 -0.13663295 0.0017834954 0.17247427 0.05503163
0.20458479 0.067166284 0.33368078 -0.017438006 0.2532362 0.09553013 -0.18179153 0.05216764
00000000: bf3e cf3d 5afc 73be f85d 08be 6c61 22be
00000010: db57 cbbb 9a6c 0cbf e26d 0f3f 5bfa bf3c
00000020: 7bf0 c93c 8ac4 d93c 31bc 833d b830 93bd
00000030: d599 a7be 536a 35bd 3f76 ecbe 64f4 afbd
00000040: e305 ec3d 1d18 5c3e b558 08be f00a 50be
00000050: 0119 afbd ab0a 573d 23e2 00bb 244e cebd
00000060: a222 bd3d 768c b23e 0af3 7f3c e31b 0c3f
00000070: c81b 4abe c708 b1bd ffe6 6cbe 83cb 843e
00000080: 7d34 b73d 42ac 0c3e 96ef 95be e73a cdbe
00000090: 767f 88be 794c b9bd 0005 c2bc 805d 77bc
000000a0: 08a8 d43d dee9 ebbd 6f44 2abe 5700 82bd
000000b0: 1ad9 27be 1394 e93d 9a66 893b 3729 c8bd
000000c0: d6f9 e8bd be93 bb3c 38ac f4bd 06b8 943d
000000d0: f9db 40be ad8e 8d3d 28f1 083e 1762 1b3f
000000e0: 1466 cabd 13f3 303c 03e5 8a3d 87bb a8bd
000000f0: 1241 493e f447 0cbe bed3 563d 9f09 17be
00000100: e75d 1bbe 47fa 33bd 5ed9 ce3e 73de 153e
00000110: 888b 953e af9e 823d 4402 d13c fe8e 313e
00000120: 3189 be3e af45 fabd 72b2 e63c da2f 74bd
00000130: ea58 babe 6164 8b3e 027c bbbd 2713 a83d
00000140: 6e10 393d 0522 493e 43e1 003e a9b5 ab3d
00000150: 3a98 e8be 4fbf 853e 99f2 8b3e 715f 103e
00000160: d8ed 443e 2370 b83d 6dec 61bd 47c3 9abd
00000170: badf 1e3e 0ec7 6abd 0a55 683e 247f 103e
00000180: a5c5 71be c504 c23d 2393 7abd c8cc d13a
00000190: 9dd5 85be 338a 51be 280c d63c daf4 a1be
000001a0: 1305 68be 65b8 a23e 9d37 283e eb7a 983e
000001b0: 10ff aebe cd6e 29be 308d 5d3e 273a 2d3d
000001c0: b582 0dbf 5f1e 21bc a298 a93e b79a 713e
000001d0: 3293 033e fe68 7d3d 08c4 173e 2788 c6be
000001e0: 7a41 b8bd 7034 f8bd 7836 dfbc 174f 953e
000001f0: b25c cabe b598 163c 60f4 11be 97b7 f83b
00000200: 1664 ae3d 67a2 743e 2616 0a3e a77b 92bd
00000210: 247a bcbc 3669 8dbe 94cb edbd 0846 bf3e
00000220: 623a 0abe ddef ebbb 70bf 4cbe 3830 063e
00000230: eab8 f0bd 2930 f73e 27b9 14be 3810 423c
00000240: 7c9f 7bbe 0887 42bc 0ca7 e93d 45e6 8fbd
00000250: 877c 313e 111e 30be c555 b2bd e98e 6a3c
00000260: f85f 063e 61d9 8cbe 212e f3be 68e6 98bd
00000270: 2a68 b9be 9646 77be 2979 493d 0147 cdbc
00000280: 3154 093f 73b9 d6bd 07c4 5abe d268 bebd
00000290: 76d5 6dbd 95ca 933d dcc5 763d f75a 05be
000002a0: 5e4f b63e 32fd f6be 2559 1d3e 9e64 143e
000002b0: 1fa2 e2bd cd98 afbd cbf4 fabd 3a84 3dbe
000002c0: e33e 373d d94b 3a3d 22ac 663e 3038 82be
000002d0: bf73 063e 8be9 e4bd a6ab 8ebe 9615 06be
000002e0: c6f8 3f3d 6c8a 123e 6d9a 5dbe ee59 43be
000002f0: e10a 173d c9ce 993e c783 39bd d133 a2be
00000300: a50d 83bd fe30 64bd 79e1 c43e 4125 8d3c
00000310: 0cea 1dbe c85c a7be 1cbf c1be 0ab4 2dbe
00000320: c59e 673e ca72 22be d122 f73d 5f1c 503e
00000330: cd58 0c3d 7c29 86bc 1368 ecbd d08a e3bd
00000340: 0008 85bd e5f0 bb3e f9c1 ad3e 7a25 933d
00000350: c660 1abe 9d28 1dbe 9649 e13d bc8d 4b3b
00000360: a6e3 663e 2b49 123e 9f6e 323e 9bcf ec3c
00000370: 422c a4be e198 2b3e 9b4b adbc 14b4 f83d
00000380: 618b bebc 36e8 8f3d 5ced bfbe 22a8 4fbe
00000390: fb3d 93be 8ac2 ccbe d76f 46bd 5493 68be
000003a0: d17f b1bb 09a8 bd3d 1dc8 f23d 036f 0cbe
000003b0: 0bd0 523c d147 c43d 6242 ea3d d45e 173e
000003c0: 654e 85be 8305 133c e66b 653d 7a38 7e3d
000003d0: 82e9 0bbe 2dc4 e93a 189d 303e d968 613d
000003e0: ad7e 513e 7a8e 893d 35d8 aa3e 26da 8ebc
000003f0: 2da8 813e 4da5 c33d 8f27 3abe bcad 553d

encoder.2.fc1.bias f4 [128]
-0.0776436 -0.02707383 0.029673845 0.017822742 -0.121780455 -0.022022413 0.04269688 -0.14173381
-0.07539125 -0.058727745 -0.09920975 -0.020105897 0.11942283 -0.089508854 -0.053256363 0.01418467
0.028737213 -0.029341584 -0.22346085 -0.073428616 -0.041944228 -0.099965625 -0.15028007 -0.100577585
0.03886628 -0.2757142 -0.1416101 -0.26410076 -0.20929429 -0.11650885 0.045274854 -0.029596535
-0.060832806 -0.24190739 -0.08896473 -0.108977936 -0.21535282 -0.072030134 -0.19641462 -0.15502627
-0.012916541 -0.029585402 -0.022719784 -0.03565575 -0.030078067 -0.26001498 -0.18812807 -0.03866966
-0.19294213 -0.04953769 -0.15468507 -0.0017977674 -0.115470596 -0.1742383 -0.23636241 -0.0035206403
-0.24555236 -0.11847137 0.011505316 0.0155628 0.17013499 0.019819727 -0.027641352 0.04194679
-0.1284352 -0.20323387 -0.13012217 -0.014840859 0.032445207 0.091123395 -0.060349416 -0.14746128
-0.021844195 -0.0007123123 -0.13680618 -0.047871973 0.033113953 -0.091492146 -0.032711767 -0.0324283
-0.121439435 -0.08564305 -0.021467255 0.023302218 -0.045007426 -0.05537408 -0.02536346 -0.028506137
-0.05526292 -0.07319375 -0.1407355 -0.04101088 -0.14301898 -0.06448471 -0.11070841 -0.07767669
-0.13716659 -0.030144695 -0.0077701444 -0.20250908 0.0646562 -0.12028824 -0.031358894 -0.15716289
-0.14889781 -0.13838571 -0.089091346 -0.12085122 -0.025780037 -0.06599395 -0.051364653 -0.18044731
0.005996016 -0.16439912 -0.07775954 -0.24563289 -0.13949984 0.035128478 -0.13488102 -0.105822496
-0.15816018 -0.01973279 0.017644629 0.0527407 -0.07016274 0.060238976 -0.051390074 -0.10076159
00000000: 9c03 9fbd f0c9 ddbc 9016 f33c 0001 923c
00000010: 0868 f9bd 5968 b4bc ece2 2e3d ab22 11be
00000020: ba66 9abd 818c 70bd 7b2e cbbd 1fb5 a4bc
00000030: f593 f43d 6b50 b7bd 5823 5abd d166 683c
00000040: 4e6a eb3c c35d f0bc ecd2 64be be61 96bd
00000050: b6cd 2bbd c7ba ccbd 05e3 19be 9ffb cdbd
00000060: 4032 1f3d 692a 8dbe 3d02 11be 3738 87be
00000070: 3e51 56be 319c eebd 2072 393d 6f74 f2bc
00000080: d22b 79bd 92b6 77be 2433 b6bd d32f dfbd
00000090: 7385 5cbe 8984 93bd ea20 49be 35bf 1ebe
000000a0: e69f 53bc 165d f2bc d71e babc c40b 12bd
000000b0: 4766 f6bc af20 85be a5a4 40be 1464 1ebd
000000c0: 9f92 45be 08e8 4abd c365 1ebe 10a3 ebba
000000d0: d97b ecbd 866b 32be fd08 72be 8bba 66bb
000000e0: 1472 7bbe 1ea1 f2bd cb80 3c3c 1dfb 7e3c
000000f0: de37 2e3e fb5c a23c 1e70 e2bc 66d0 2b3d
00000100: 8484 03be 8a1c 50be bf3e 05be 1327 73bc
00000110: 44e5 043d e79e ba3d f330 77bd 1700 17be
00000120: 99f2 b2bc 78ba 3aba eb16 0cbe 6715 44bd
00000130: 7fa2 073d 3c60 bbbd c6fc 05bd 89d3 04bd
00000140: 3db5 f8bd a065 afbd 19dc afbc 4be4 be3c
00000150: b559 38bd eecf 62bd 08c7 cfbc b485 e9bc
00000160: 5f5b 62bd 9be6 95bd f81c 10be 06fb 27bd
00000170: 9173 12be 8f10 84bd 17bb e2bd f514 9fbd
00000180: 6675 0cbe 02f2 f6bc b29c febb 8a5e 4fbe
00000190: 786a 843d ae59 f6bd 2f72 00bd 4fef 20be
000001a0: ab78 18be fcb4 0dbe 8675 b6bd d880 f7bd
000001b0: a830 d3bc d627 87bd be63 52bd 2ec7 38be
000001c0: 3a7a c43b 3e58 28be 6540 9fbd 3087 7bbe
000001d0: 0cd9 0ebe e1e2 0f3d 401e 0abe 77b9 d8bd
000001e0: bef4 21be a9a6 a1bc 788b 903c a206 583d
000001f0: 7cb1 8fbd 25bd 763d 667e 52bd 185c cebd

encoder.2.fc2.weight f4 [128, 128]
-0.07282033 -0.20852928 -0.105009586 0.01824817 -0.120559394 0.035503965 0.011046491 0.16778551
0.17527705 0.023667462 0.19336754 -0.24650806 0.029102776 0.1451485 0.1951806 -0.2738063
0.06380175 0.18565941 -0.09276984 0.10158561 0.0020663617 0.17738748 0.030884938 -0.0895575
0.2795796 -0.20120832 -0.36310747 -0.21789409 -0.03877835 0.00012355087 -0.125926 0.30103058
0.35148406 -0.15300782 0.09995038 0.18627945 0.12089672 -0.07361843 0.10004691 0.1824058
-0.3595403 -0.089067996 -0.06741709 0.12217587 0.32627925 -0.058390047 0.05058447 0.32924056
-0.14362115 -0.18889353 -0.33600885 -0.06873248 0.112790786 -0.15292457 -0.13205877 0.107842244
0.22643867 0.27962413 0.25873506 -0.15525743 -0.41911668 -0.21517849 0.07116059 -0.28851798
0.11443948 -0.13331412 -0.12549943 0.20038703 0.07438216 -0.17990491 -0.31325886 -0.0052206656
-0.15994713 -0.21283698 -0.09947569 0.0455403 0.029562958 0.0398529 -0.36382478 -0.3749955
0.061144684 0.06515334 0.09253903 -0.117954716 -0.1868047 0.16576976 0.057638466 0.14043288
-0.28075892 0.0069868765 0.09310935 -0.010556344 0.36150318 0.16450216 -0.09794779 -0.14014035
-0.23782451 0.5226857 0.15001526 -0.13317107 -0.050090436 -0.2262195 -0.33817035 0.1028714
-0.08501587 -0.19046947 -0.025401503 0.09127254 -0.22897749 0.084578745 0.10273342 -0.0072515267
-0.24443991 0.07262113 -0.22184998 -0.28193536 -0.000704752 0.11463279 -0.17273436 0.13855131
0.058167648 -0.043444544 -0.03571807 -0.2910793 -0.31444848 -0.26657706 -0.24843286 0.04611874
0.123409286 0.24746792 -0.243502 -0.04095469 0.07088155 -0.32229227 -0.09680529 0.17710125
0.2050444 0.048264075 0.06920546 -0.23687142 0.015352993 0.13731483 0.03958934 0.32685494
0.09227778 0.3217351 -0.0042540384 0.04069877 -0.18235207 0.0728007 0.13907492 -0.04253768
-0.23695572 0.27377394 0.039818242 0.19146274 -0.09984396 0.12212681 -0.19100536 -0.106325716
0.23755378 0.1524873 -0.05581772 0.31453928 -0.15130943 -0.31114274 0.1647773 0.1858413
-0.3015716 0.04879801 -0.05008251 -0.03520251 -0.20108834 0.08004671 0.07153563 -0.09709281
-0.23168102 -0.090596326 -0.26403373 0.15963058 0.044380885 -0.13332658 0.08238917 -0.028103255
0.16711147 0.09573517 0.14763768 0.29135138 -0.22072095 -0.32065725 0.14934805 -0.1996715
-0.0007724437 0.36513826 -0.0765185 -0.10779923 -0.18226434 -0.36459163 -0.20235835 0.06488381
0.26908436 -0.20375645 0.006496792 -0.120728076 0.020371528 -0.06746962 -0.20744932 -0.47313187
-0.2907592 -0.045917153 -0.068293825 -0.04332252 0.14165923 0.19474936 -0.25535405 0.083273925
0.008770399 -0.17751773 -0.01949397 0.101580866 -0.085238256 -0.30347374 0.19230485 -0.15108602
-0.14046536 -0.15487614 -0.05016307 0.33935964 0.15504727 0.0059369574 0.2461211 0.12114936
-0.02688615 0.21696137 -0.26308498 -0.021483695 -0.13079314 -0.12064206 0.18912077 0.03000552
0.30625188 -0.057702128 -0.21329339 -0.18402253 -0.042611193 0.243772 -0.0042049955 0.05634789
-0.1610181 -0.35325915 -0.4437073 -0.20938899 -0.3296043 -0.29103127 0.08262582 -0.05300111
00000000: d322 95bd b388 55be 440f d7bd 307d 953c
00000010: d8e7 f6bd 9b6c 113d 57fc 343c f7cf 2b3e
00000020: d47b 333e 44e2 c13c 2402 463e 9c6c 7cbe
00000030: f268 ee3c cfa1 143e 6cdd 473e 5730 8cbe
00000040: 7eaa 823d 801d 3e3e 1dfe bdbd 1e0c d03d
00000050: cc6b 073b 10a5 353e 6902 fd3c ec69 b7bd
00000060: 0f25 8f3e 8e09 4ebe 39e9 b9be a11f 5fbe
00000070: 0cd6 1ebd 6f8d 0139 bff2 00be ae20 9a3e
00000080: b8f5 b33e 15ae 1cbe c9b2 cc3d 0ac0 3e3e
00000090: b398 f73d 42c5 96bd 65e5 cc3d 96c8 3a3e
000000a0: ab15 b8be 4869 b6bd f911 8abd 5837 fa3d
000000b0: 130e a73e 672a 6fbd a931 4f3d 3892 a83e
000000c0: 6c11 13be 4e6d 41be 5a09 acbe 9dc3 8cbd
000000d0: dbfe e63d 4298 1cbe 6a3a 07be 65dc dc3d
000000e0: 8adf 673e e52a 8f3e ec78 843e cefb 1ebe
000000f0: 7696 d6be c057 5cbe a5bc 913d a1b8 93be
00000100: 3f5f ea3d 7f83 08be ec82 00be 4232 4d3e
00000110: ad55 983d fe38 38be 7763 a0be 1e12 abbb
00000120: 2ec9 23be f0f1 59be e9b9 cbbd 7788 3a3d
00000130: 042e f23c cb3c 233d 3e47 babe 69ff bfbe
00000140: d972 7a3d 1d6f 853d 1a85 bd3d 3e92 f1bd
00000150: bb49 3fbe 8cbf 293e 5016 6c3d a3cd 0f3e
00000160: a2bf 8fbe 2bf2 e43b 1db0 be3d 84f4 2cbc
00000170: f216 b93e 4173 283e da98 c8bd f480 0fbe
00000180: 4588 73be bbce 053f 9a9d 193e ff5d 08be
00000190: a12b 4dbd 16a6 67be aa24 adbe 3eae d23d
000001a0: cd1c aebd 6e0a 43be d016 d0bc 19ed ba3d
000001b0: 1379 6abe 9f37 ad3d e665 d23d 379e edbb
000001c0: 754e 7abe 63ba 943d a42c 63be d559 90be
000001d0: 1bbf 38ba 99c4 ea3d 47e1 30be 65e0 0d3e
000001e0: 3341 6e3d e8f2 31bd 1c4d 12bd 5908 95be
000001f0: 64ff a0be ca7c 88be 2f65 7ebe 01e7 3c3d
00000200: 02be fc3d 3b68 7d3e 9758 79be 1bc0 27bd
00000210: 592a 913d 7e03 a5be da41 c6bd 085a 353e
00000220: 29f7 513e 8db0 453d 98bb 8d3d 6c8e 72be
00000230: 1f8b 7b3c 429c 0c3e 6f28 223d 8859 a73e
00000240: 22fc bc3d 77ba a43e 7665 8bbb c1b3 263d
00000250: 80ba 3abe 8918 953d a869 0e3e fe3b 2ebd
00000260: 85a4 72be 192c 8c3e 7418 233d cf0e 443e
00000270: fd7a ccbd 9f1d fa3d e996 43be 4cc1 d9bd
00000280: 4c41 733e a125 1c3e 1fa1 64bd 4b0b a13e
00000290: dcf0 1abe 1a4e 9fbe 61bb 283e 2f4d 3e3e
000002a0: 9867 9abe 6ce0 473d 5123 4dbd 8230 10bd
000002b0: 1aea 4dbe 88ef a33d 4681 923d 98d8 c6bd
000002c0: ca3d 6dbe 918a b9bd 6e2f 87be 3376 233e
000002d0: bbc8 353d c386 08be a7bb a83d cc38 e6bc
000002e0: 451f 2b3e cd10 c43d 552e 173e 022c 953e
000002f0: ac04 62be 302d a4be b2ee 183e b076 4cbe
00000300: d27d 4aba 67f3 ba3e bbb5 9cbd d8c5 dcbd
00000310: 81a3 3abe c1ab babe 0737 4fbe cee1 843d
00000320: 6dc5 893e 88a5 50be 0be3 d43b 4840 f7bd
00000330: 31e2 a63c 832d 8abd 986d 54be 573e f2be
00000340: 64de 94be a013 3cbd a2dd 8bbd f472 31bd
00000350: 1e0f 113e 606c 473e c4bd 82be 858b aa3d
00000360: b8b1 0f3c 35c7 35be d1b1 9fbc a109 d03d
00000370: 6591 aebd e960 9bbe 90eb 443e 4bb6 1abe
00000380: 27d6 0fbe da97 1ebe cb77 4dbd 8cc0 ad3e
00000390: b6c4 1e3e cf8a c23b 2b07 7c3e 281d f83d
000003a0: 5840 dcbc 1f2b 5e3e 13b3 86be 93fe afbc
000003b0: a3ee 05be 2f13 f7bd e0a8 413e 23ce f53c
000003c0: 0ccd 9c3e 1159 6cbd 9569 5abe 6770 3cbe
000003d0: 1389 2ebd 5e9f 793e 0fca 89bb 0ccd 663d
000003e0: eee1 24be 62de b4be 9a2d e3be 116a 56be
000003f0: e5c1 a8be 0d02 95be ba37 a93d b117 59bd

encoder.2.fc2.bias f4 [128]
-0.22626813 -0.20257698 -0.15576668 -0.22212704 0.000883781 -0.06428251 -0.14392214 -0.35023955
0.052541852 0.055779018 -0.337426 -0.09280075 -0.3442317 0.061277457 -0.07594607 0.15645099
-0.12633935 -0.08784578 -0.18364029 -0.13443959 -0.069583595 -0.20932959 -0.1159604 -0.10638278
0.092556424 -0.21321358 0.053999163 -0.12368424 -0.1746574 -0.27411398 -0.13046354 -0.16021174
-0.014299058 -0.25945577 -0.2721963 0.023502707 -0.09797396 -0.05592071 -0.08163675 -0.1776883
-0.28557336 0.22128923 0.026843486 -0.3640764 -0.064799726 -0.3165625 -0.20464051 0.033878505
-0.09837672 0.046069834 0.06780999 -0.07408286 -0.16188121 -0.17009564 -0.050920356 -0.2610269
-0.27175885 -0.4004318 -0.16518447 -0.31397817 -0.04175476 0.09437894 0.17561767 0.21310908
-0.21706745 -0.18393867 -0.1896637 -0.169499 -0.23598664 -0.006002062 -0.12766348 -0.013088077
-0.013593268 -0.3311724 -0.2411356 -0.00685315 -0.033184852 -0.10133398 -0.0032074437 0.19281463
-0.3278972 -0.36764205 -0.16293359 -0.07110322 0.01953579 -0.39965698 -0.25282964 0.094486944
-0.3510064 0.004236809 -0.059564862 0.0030361032 0.07095407 -0.027747735 0.027156685 0.079246774
-0.11002178 -0.28121558 -0.2654928 -0.28832057 -0.07416428 -0.40498078 -0.2202068 -0.18339927
0.266222 0.03134021 -0.10606031 -0.11166666 -0.21596235 -0.05816937 -0.14810075 0.03169645
-0.26883292 -0.07663479 -0.33608478 -0.17837024 -0.32603884 0.022829942 -0.1436766 -0.081083216
-0.12257101 -0.19716 -0.63382566 -0.19205181 -0.25998706 0.19256209 -0.067691274 -0.1873553
00000000: d5b2 67be 5770 4fbe 4d81 1fbe 4575 63be
00000010: 8aad 673a 8ca6 83bd 5360 13be 9952 b3be
00000020: 2036 573d 8a78 643d 1ac3 acbe 520e bebd
00000030: 233f b0be 12fe 7a3d 9d89 9bbd b034 203e
00000040: 1a5f 01be 7de8 b3bd 330c 3cbe 88aa 09be
00000050: d881 8ebd 7f5a 56be a57c edbd 37df d9bd
00000060: 398e bd3d a954 5abe 3a2e 5d3d 2a4e fdbd
00000070: 64d9 32be ab58 8cbe 3c98 05be 8c0e 24be
00000080: 9946 6abc 63d7 84be 505d 8bbe c088 c03c
00000090: 92a6 c8bd 1d0d 65bd 2b31 a7bd ecf3 35be
000000a0: ac36 92be a599 623e dfe6 db3c 3968 babe
000000b0: b8b5 84bd 7b14 a2be 488d 51be 30c4 0a3d
000000c0: bc79 c9bd b9b3 3c3d f7df 8a3d c1b8 97bd
000000d0: 30c4 25be 8d2d 2ebe dd91 50bd 51a5 85be
000000e0: fa23 8bbe 6605 cdbe 1e26 29be bfc1 a0be
000000f0: 0a07 2bbd bf49 c13d 1ed5 333e 4439 5a3e
00000100: ee46 5ebe 6b5a 3cbe 3337 42be 2591 2dbe
00000110: 7ba6 71be f2ac c4bb 37ba 02be 606f 56bc
00000120: 4cb6 5ebc 6e8f a9be 40ec 76be 6490 e0bb
00000130: d7ec 07bd 3188 cfbd fa33 52bb 3371 453e
00000140: 24e2 a7be 943b bcbe 10d8 26be 919e 91bd
00000150: 8509 a03c d79f ccbe e372 81be 5f82 c13d
00000160: 1cb7 b3be eed4 8a3b 49fa 73bd 5cf9 463b
00000170: 5e50 913d 384f e3bc b277 de3c 224c a23d
00000180: 1953 e1bd 7dfb 8fbe acee 87be c19e 93be
00000190: 71e3 97bd a459 cfbe e47d 61be 05cd 3bbe
000001a0: 404e 883e 985e 003d 2636 d9bd 7db1 e4bd
000001b0: 3c25 5dbe 0143 6ebd b9a7 17be 23d4 013d
000001c0: 78a4 89be b3f2 9cbd 4e13 acbe b0a6 36be
000001d0: 90ee a6be dc05 bb3c f51f 13be f50e a6bd
000001e0: 8206 fbbd 50e4 49be 6642 22bf 3ba9 44be
000001f0: 061d 85be ff2e 453e b9a1 8abd 11da 3fbe

encoder.3.fc1.weight f4 [128, 128]
0.06761905 0.045381226 0.21817595 0.048219245 -0.26360956 0.10574507 0.14825392 0.24511194
-0.37643975 0.20243564 0.013836966 -0.122370765 0.25723544 -0.45962912 0.056599863 -0.78867716
-0.058759015 0.039900366 -0.03428472 0.011034638 0.17995183 -0.0024931575 -0.11555707 0.046066374
-0.12945674 0.27042747 -0.18702556 -0.17380342 -0.14788508 -0.220291 -0.038548503 -0.071432866
-0.38050836 -0.119923994 0.3700814 0.13706915 -0.053504653 -0.39060822 0.060677197 0.13970202
0.3432595 -0.48330736 0.10313321 0.13195027 -0.012296625 0.1519257 0.111162454 0.19449311
0.25299692 -0.23899077 -0.17283529 -0.26301566 0.17294444 -0.03911151 -0.22543678 0.11216677
0.20522152 0.15867335 0.045342978 0.057245277 -0.21666068 -0.35395363 -0.85368234 -0.10891761
0.28322536 -0.046787582 0.21522337 -0.061086636 0.23431481 -0.37908363 -0.14064002 0.023244206
-0.32276696 0.100939676 0.10383097 -0.14114386 -0.08128191 -0.21769492 -0.036850672 -0.25663757
-0.024384877 -0.20729771 -0.1857796 -0.16963722 -0.11338725 0.26429453 -0.15991583 -0.46737504
0.06682257 -0.09719071 -0.14626 -0.15652019 0.13034582 0.014846409 -0.14218538 -0.08534515
-0.049465265 0.110693276 -0.048340127 0.03697699 -0.005842323 0.124110006 -0.17003442 -0.1308562
-0.42304328 0.23471196 -0.04343941 -0.005189659 -0.24146812 0.17911589 0.15415792 0.021062413
0.20141116 -0.06811099 0.4842397 0.020145882 -0.008009706 0.013719135 -0.041338056 0.021748124
0.11354865 -0.018445676 0.06528836 0.045226894 0.079850785 -0.2332289 0.14306538 -0.08982366
0.068917595 -0.06314566 0.00401117 0.010642994 0.011912604 -0.02117629 0.31534952 0.0037947695
0.06556902 -0.18644 0.29351857 0.057509597 0.2572305 0.08807683 0.09648592 0.0038314317
-0.016683716 0.01778745 -0.15111604 -0.102953255 0.10860586 0.17501275 -0.37243447 -0.08059677
0.073963776 0.027077137 -0.18641141 0.1251088 -0.16835186 0.007153387 0.23822005 -0.05480953
0.049136147 0.23125303 0.31851938 -0.638263 0.09216716 0.22860096 -0.01520799 0.056558654
-0.048394445 -0.5315453 -0.395702 0.13184403 -0.09675846 0.22022916 -0.19998287 -0.13606533
-0.09520929 0.16886023 0.0685602 -0.28969887 -0.018164614 -0.17041153 -0.051409 0.11478164
0.22362763 0.07103608 0.17815256 -0.38396558 -0.09161725 0.122133054 -0.2822906 -0.6974726
-0.057711378 0.0262658 0.20979495 0.33314514 -0.021666758 -0.3591052 0.09534124 -0.35996467
0.08297979 -0.08264605 0.17196815 0.010146382 -0.27854848 -0.5635306 -0.19354536 0.120498724
0.19936399 0.0125805205 -0.20917052 -0.3388951 -0.051602274 0.096649624 -0.1324431 0.20457268
-0.16028537 -0.034784373 -0.39964497 -0.10269492 -0.24832541 -0.10258219 -0.20019047 -0.36855492
0.13758771 0.019274333 0.009572835 0.107134916 -0.15113336 0.36144838 0.1285016 0.01309314
-0.24484955 -0.010238266 -0.121978864 0.3334389 0.19810435 -0.524062 0.0008449249 0.44288352
0.08361624 -0.053750288 0.25722298 0.0752025 -0.4093154 -0.34860253 -0.050570752 -0.16262041
-0.102517486 -0.21602146 -0.3237122 0.24900798 -0.2141242 -0.3830689 -0.042891987 0.36072546
00000000: db7b 8a3d aae1 393d 8469 5f3e 8b81 453d
00000010: d5f7 86be df90 d83d e0cf 173e a0fe 7a3e
00000020: b6bc c0be 4a4b 4f3e 71b4 623c 869d fabd
00000030: 5db4 833e 8254 ebbe 42d5 673d bfe6 49bf
00000040: 4bad 70bd 916e 233d 226e 0cbd a0ca 343c
00000050: 4b45 383e 3e64 23bb 2fa9 ecbd 18b0 3c3d
00000060: 4f90 04be 7875 8a3e a183 3fbe 86f9 31be
00000070: 306f 17be f793 61be 09e5 1dbd 654b 92bd
00000080: fed1 c2be b69a f5bd 4f7b bd3e db5b 0c3e
00000090: b227 5bbd cdfd c7be a788 783d 0c0e 0f3e
000000a0: b6bf af3e 1074 f7be 8137 d33d f91d 073e
000000b0: c977 49bc 6992 1b3e 24a9 e33d 3429 473e
000000c0: d088 813e ffb9 74be bcfb 30be fda9 86be
000000d0: 5918 313e 6433 20bd e6d8 66be b1b7 e53d
000000e0: 9725 523e 447b 223e 8fb9 393d 067a 6a3d
000000f0: 4cdc 5dbe 6939 b5be ed8a 5abf 3210 dfbd
00000100: ea02 913e 56a4 3fbd 8463 5c3e fb35 7abd
00000110: 39f0 6f3e 4017 c2be f003 10be a26a be3c
00000120: b641 a5be 76b9 ce3d 55a5 d43d 0488 10be
00000130: 2177 a6bd 6beb 5ebe bbf0 16bd 0066 83be
00000140: cbc2 c7bc da45 54be 023d 3ebe 61b5 2dbe
00000150: 9337 e8bd 9d51 873e fac0 23be c84b efbe
00000160: 46da 883d ec0b c7bd 2ec5 15be d446 20be
00000170: 6079 053e 5a3e 733c 0b99 11be 70c9 aebd
00000180: 179c 4abd 28b3 e23d 4c00 46bd 2f75 173d
00000190: f570 bfbb 632d fe3d 811d 2ebe 2bff 05be
000001a0: 2199 d8be 5558 703e 86ed 31bd 040e aabb
000001b0: 6b43 77be 286a 373e 93db 1d3e 158b ac3c
000001c0: ba3e 4e3e c67d 8bbd 44ee f73e fa08 a53c
000001d0: 243b 03bc 39c6 603c 1852 29bd 1f29 b23c
000001e0: 328c e83d 631b 97bc e7b5 853d d63f 393d
000001f0: cf88 a33d 8fd3 6ebe bb7f 123e 78f5 b7bd
00000200: ab24 8d3d 8352 81bd 2270 833b f45f 2e3c
00000210: 152d 433c e679 adbc 7e75 a13e abb1 783b
00000220: 0d49 863d 21ea 3ebe 1148 963e 2f8f 6b3d
00000230: b7b3 833e a061 b43d 699a c53d c218 7b3b
00000240: 4aac 88bc fdb6 913c 2abe 1abe 28d9 d2bd
00000250: c06c de3d 8b36 333e bbaf bebe eb0f a5bd
00000260: 527a 973d dfd0 dd3c a2e2 3ebe 851c 003e
00000270: 6e64 2cbe f666 ea3b f5ef 733e f57f 60bd
00000280: fc42 493d 98cd 6c3e f914 a33e 3465 23bf
00000290: 23c2 bc3d 5f16 6a3e ef2a 79bc 0caa 673d
000002a0: 4139 46bd 5a13 08bf 7499 cabe 1f02 073e
000002b0: 4d29 c6bd c183 613e 4fc8 4cbe b654 0bbe
000002c0: 17fd c2bd b2e9 2c3e 4a69 8c3d 6953 94be
000002d0: f5cd 94bc 5c80 2ebe 3e92 52bd a312 eb3d
000002e0: a4fe 643e 5d7b 913d a06d 363e 2397 c4be
000002f0: d3a1 bbbd e520 fa3d 6588 90be 908d 32bf
00000300: c462 6cbd 602b d73c 7dd4 563e 0092 aa3e
00000310: 7c7e b1bc a3dc b7be 4542 c33d 4a4d b8be
00000320: 4ff1 a93d 5542 a9bd 6b18 303e 033d 263c
00000330: e89d 8ebe 8b43 10bf c130 46be 09c8 f63d
00000340: 1326 4c3e 871e 4e3c cc30 56be a983 adbe
00000350: e85c 53bd 3df0 c53d 2a9f 07be 807b 513e
00000360: d921 24be 0f7a 0ebd 449e ccbe b751 d2bd
00000370: 0449 7ebe 9c16 d2bd bbfe 4cbe 3bb3 bcbe
00000380: cbe3 0c3e 35e5 9d3c 61d7 1c3c 8d69 db3d
00000390: b4c2 1abe c30f b93e ec95 033e 9c84 563c
000003a0: d7b9 7abe 66be 27bc 0ed0 f9bd 81b8 aa3e
000003b0: dedb 4a3e ed28 06bf f37d 5d3a a1c1 e23e
000003c0: fe3e ab3d 4329 5cbd bbb2 833e c503 9a3d
000003d0: ca91 d1be 087c b2be 4723 4fbd f785 26be
000003e0: b0f4 d1bd bb34 5dbe 9bbd a5be f3fb 7e3e
000003f0: 6043 5bbe 9b21 c4be 82af 2fbd 02b1 b83e

encoder.3.fc1.bias f4 [128]
-0.32126245 -0.23509905 -0.33135074 -0.08306842 -0.124333106 -0.482237 0.060954243 -0.055045456
-0.25123978 -0.082634665 0.04190119 0.040800165 -0.11277919 -0.22451451 -0.40966088 -0.093141906
0.054806527 -0.21515575 0.029028248 0.041679718 -0.15786116 -0.32623786 -0.023126937 -0.21203162
-0.041124113 -0.065752216 0.40921658 -0.22735013 -0.061348327 -0.09554885 -0.008224031 0.01769659
-0.029674571 -0.35014328 -0.027441448 -0.08949081 -0.32508525 -0.38256 -0.13508937 -0.046737425
-0.11711273 -0.5068549 -0.2808362 0.043886825 -0.1654544 -0.09470549 -0.3541274 -0.33026916
-0.33811688 -0.027941743 -0.0716995 -0.043031998 -0.036038063 0.0039578723 -0.18527234 -0.35756215
-0.20377631 0.06493109 -0.10530286 -0.11401649 -0.34747776 -0.2930625 -0.083638534 -0.49367788
0.053607035 -0.06294134 0.10208849 -0.02177628 -0.07488588 -0.30212548 -0.16253227 -0.0606257
-0.0071238377 0.0009207153 -0.012299991 -0.15168892 -0.1938307 -0.1735998 -0.20619938 -0.44102883
-0.060660493 -0.33237293 -0.3388683 -0.0015143361 -0.27793166 -0.25538388 -0.016187714 0.08224557
-0.28464457 -0.0937943 -0.058294427 -0.20631686 -0.023671197 -0.030220652 -0.5098964 -0.04233357
0.029448504 -0.63105226 -0.5437618 -0.12266148 -0.009129313 -0.036999356 -0.46974578 0.06903548
-0.19347274 -0.0282549 -0.6771897 0.029432748 -0.16652746 -0.014684867 -0.23595013 0.021158611
-0.28512043 -0.13398117 0.0142240515 -0.04554769 -0.16789225 -0.42221722 0.026436834 0.014840936
-0.011578018 -0.011014814 -0.038629856 0.096543886 -0.23277962 0.0787592 -0.40281227 -0.32435277
00000000: 837c a4be cebd 70be cea6 a9be c71f aabd
00000010: 5ba2 febd c5e7 f6be 28ab 793d 5877 61bd
00000020: 80a2 80be 5d3c a9bd 95a0 2b3d 131e 273d
00000030: c7f8 e6bd 22e7 65be 12bf d1be 2fc1 bebd
00000040: cf7c 603d ca51 5cbe a6cc ed3c 5ab8 2a3d
00000050: 5ba6 21be a608 a7be b474 bdbc d11e 59be
00000060: c271 28bd 19a9 86bd d684 d13e 79ce 68be
00000070: 6248 7bbd 1eaf c3bd 16be 06bc 70f8 903c
00000080: 1618 f3bc fb45 b3be e3cc e0bc f546 b7bd
00000090: 9371 a6be e8de c3be de54 0abe be6f 3fbd
000000a0: cdd8 efbd 3ec1 01bf c3c9 8fbe acc2 333d
000000b0: e16c 29be f4f4 c1bd 3050 b5be 0a19 a9be
000000c0: a81d adbe 15e6 e4bc 30d7 92bd 5242 30bd
000000d0: a69c 13bd 0ab1 813b 08b8 3dbe 6312 b7be
000000e0: bdaa 50be 97fa 843d 07a9 d7bd 7a81 e9bd
000000f0: 9be8 b1be 4a0c 96be ae4a abbd 59c3 fcbe
00000100: 0d93 5b3d 64e7 80bd c513 d13d 2b64 b2bc
00000110: c55d 99bd 31b0 9abe dc6e 26be a752 78bd
00000120: 156f e9bb 285c 713a e785 49bc 5754 1bbe
00000130: 8e7b 46be 25c4 31be ee25 53be 88ce e1be
00000140: 2377 78bd c92c aabe 2580 adbe b07c c6ba
00000150: 0f4d 8ebe adc1 82be 199c 84bc 5e70 a83d
00000160: efbc 91be 3a17 c0bd 23c6 6ebd ba44 53be
00000170: 19ea c1bc 4d91 f7bc 9288 02bf f765 2dbd
00000180: fd3d f13c a48c 21bf f933 0bbf f135 fbbd
00000190: 1d93 15bc a38c 17bd 8582 f0be 7962 8d3d
000001a0: b81d 46be d276 e7bc 4e5c 2dbf f21c f13c
000001b0: 2d86 2abe cc98 70bc e99c 71be d354 ad3c
000001c0: 4efb 91be 5c32 09be ff0b 693c 3790 3abd
000001d0: f2eb 2bbe db2c d8be 0f92 d83c 6627 733c
000001e0: bab1 3dbc 7a77 34bc 573a 1ebd cdb8 c53d
000001f0: c85d 6ebe 814c a13d 693d cebe 9111 a6be

encoder.3.fc2.weight f4 [128, 128]
0.16498727 0.37847233 0.2495419 -0.06424705 0.1954868 0.016344486 -0.14052597 -0.19344987
0.4523743 -0.16937588 0.0047276854 0.14213039 -0.3791088 0.39678892 0.3183724 -0.18984696
0.20679833 0.14158978 0.19671771 -0.075850055 0.26558644 0.115435064 0.29336816 -0.10195641
-0.27116913 -0.0023523795 -0.23923546 0.15492287 -0.29710484 -0.059388958 -0.06737074 -0.095665686
0.038601406 0.16702361 0.24390446 0.100504816 0.18860102 0.42522585 0.2869193 0.21556579
0.13168515 0.10969819 0.3836331 -0.26916957 0.1567282 -0.33104247 0.19844665 0.1421821
0.3455491 -0.22421293 0.16265045 0.014311982 0.3085759 0.07072777 0.2754468 -0.090605274
-0.010534593 0.14808963 -0.12995511 0.1757184 0.11714728 0.25849512 0.3123763 0.3080008
-0.22442192 -0.053845342 -0.17980674 -0.12329383 -0.013989248 0.04580048 -0.037231166 -0.26546156
-0.16529903 0.32216832 0.122265555 0.12960878 0.27557322 -0.34342822 0.23494457 0.086465426
-0.39578745 0.27072406 -0.15671155 -0.020215198 0.113015465 -0.06291817 0.2524496 -0.09669032
0.23605786 -0.0597044 0.18349792 0.10534955 -0.44032848 0.14593329 -0.24165031 -0.13001427
0.06344063 0.3451245 0.30549106 -0.073509805 -0.033771753 -0.087780304 0.25996453 -0.4595185
0.24397969 -0.04192498 0.51335096 0.099539064 -0.18975829 0.016456192 0.016882775 -0.21812506
0.090284996 -0.17460999 0.036426615 -0.37235758 0.052696932 0.22414827 -0.3384204 -0.012882385
0.022720939 0.03523598 -0.24826717 -0.016448572 0.0009821327 0.1005744 0.10151803 -0.032608815
0.42896086 -0.13585079 -0.08612525 0.30389813 0.06227677 -0.08884284 -0.09122521 -0.0017759971
0.0344426 -0.24915712 -0.14879227 0.27111787 0.22822848 0.15438597 0.25630137 0.08799192
-0.051067773 0.07602802 -0.035108212 0.17212026 0.21980561 0.12630706 0.0111259855 0.38193253
-0.1277537 -0.20439507 0.09331096 -0.3348182 0.014681697 -0.2777571 0.07558404 0.05014231
-0.14400592 -0.08774637 0.21415727 -0.07786222 -0.31716022 -0.12764834 -0.051833887 0.1043252
0.2528466 0.017749308 0.1477051 -0.1407242 -0.098128244 -0.121939056 0.010605064 0.09349387
0.101822205 -0.23826388 0.055757735 -0.1616625 0.08930165 -0.1750042 0.11614672 -0.7362319
-0.100358956 -0.064864896 -0.16132769 -0.034394674 -0.20293126 0.20617124 -0.015404157 -0.07034253
-0.14450213 0.21469404 0.027638122 -0.039895196 0.21177468 0.13440879 -0.0017041587 -0.16733356
-0.07143821 -0.02485861 -0.036206417 0.36130932 0.06549504 -0.20821404 0.06804771 -0.094846174
-0.036187645 -0.03590301 -0.1520986 0.10626688 -0.0628911 -0.11003449 -0.10958759 0.032142963
0.06490302 0.14115208 0.21891704 -0.011096661 -0.56269866 -0.069694676 -0.047329154 -0.22086482
-0.010921309 0.16501763 -0.1557758 -0.14517152 -0.056561846 0.06568444 -0.07612297 -0.03634306
-0.12986161 0.25548187 0.1673363 -0.04340152 -0.066793375 -0.00976252 -0.015301859 0.32577333
-0.08355288 0.13211945 0.010395677 0.2118631 -0.18820252 0.069121346 -0.023731567 0.08508268
0.3164955 0.045115337 -0.14014181 -0.019811071 0.33261576 0.019601358 -0.01812853 0.09244632
00000000: 6cf2 283e 20c7 c13e e987 7f3e f593 83bd
00000010: b12d 483e dfe4 853c 0ae6 0fbe b917 46be
00000020: 9b9d e73e df70 2dbe b3ea 9a3b a18a 113e
00000030: 8c1a c2be eb27 cb3e b501 a33e 3e67 42be
00000040: f1c2 533e e9fc 103e 5e70 493e 4657 9bbd
00000050: f2fa 873e 3869 ec3d 5a34 963e 86ce d0bd
00000060: aed6 8abe 612a 1abb 24fa 74be 1aa4 1e3e
00000070: 201e 98be d641 73bd acf9 89bd 5fec c3bd
00000080: 821c 1e3d 3d08 2b3e 17c2 793e 78d5 cd3d
00000090: a020 413e 34b7 d93e 16e7 923e 47bd 5c3e
000000a0: 79d8 063e 72a9 e03d 8f6b c43e 98d0 89be
000000b0: 5b7d 203e 667e a9be 9935 4b3e 2f98 113e
000000c0: d0eb b03e 1398 65be d78d 263e ce7c 6a3c
000000d0: a9fd 9d3e b9d9 903d 5d07 8d3e 428f b9bd
000000e0: 4999 2cbc cfa4 173e f412 05be 86ef 333e
000000f0: eaea ef3d 7959 843e c9ef 9f3e 48b2 9d3e
00000100: dcce 65be ef8c 5cbd 421f 38be 7a81 fcbd
00000110: 2933 65bc 4999 3b3d b57f 18bd 94ea 87be
00000120: 2644 29be 3ff3 a43e 5d66 fa3d 2ab8 043e
00000130: ef17 8d3e d3d5 afbe 4f95 703e c914 b13d
00000140: a7a4 cabe 589c 8a3e fe78 20be 589a a5bc
00000150: a774 e73d 3edb 80bd 1341 813e 9305 c6bd
00000160: 27b9 713e 9a8c 74bd e1e6 3b3e 81c1 d73d
00000170: bc72 e1be 896f 153e 2e73 77be 7622 05be
00000180: 29ed 813d 29b4 b03e 5369 9c3e 4f8c 96bd
00000190: 4054 0abd 29c6 b3bd 121a 853e 0246 ebbe
000001a0: d0d5 793e 87b9 2bbd f86a 033f 23db cb3d
000001b0: ff4f 42be 23cf 863c bf4d 8a3c 2d5c 5fbe
000001c0: 57e7 b83d f6cc 32be 1334 153d a7a5 bebe
000001d0: bdd8 573d 2087 653e 7045 adbe a410 53bc
000001e0: 4321 ba3c 9a53 103d c039 7ebe 28bf 86bc
000001f0: e8ba 803a f3f9 cd3d afe8 cf3d d290 05bd
00000200: c2a0 db3e 781c 0bbe 6f62 b0bd 8998 9b3e
00000210: ed15 7f3d 3cf3 b5bd 48d4 babd 93c8 e8ba
00000220: af13 0d3d 0b23 7fbe 005d 18be f6cf 8a3e
00000230: bab4 693e 5b17 1e3e ef39 833e 1c35 b43d
00000240: 712c 51bd 94b4 9b3d a1cd 0fbd 4b40 303e
00000250: b914 613e a356 013e c449 363c a98c c33e
00000260: ded1 02be f14c 51be d119 bf3d 4b6d abbe
00000270: 808b 703c 2e36 8ebe cecb 9a3d 0662 4d3d
00000280: 4a76 13be 5eb4 b3bd 0b4c 5b3e 3a76 9fbd
00000290: d362 a2be 3fb6 02be c54f 54bd 73a8 d53d
000002a0: 1c75 813e ff66 913c 0140 173e 011a 10be
000002b0: 76f7 c8bd 2fbb f9bd ddc0 2d3c b779 bf3d
000002c0: 2988 d03d 72fb 73be 3962 643d db8a 25be
000002d0: c9e3 b63d 4d34 33be 55de ed3d b279 3cbf
000002e0: ff88 cdbd e3d7 84bd 1633 25be 6ee1 0cbd
000002f0: 36cd 4fbe 8e1e 533e b861 7cbc bf0f 90bd
00000300: 5ef8 13be c1d8 5b3e 5869 e23c 2569 23bd
00000310: 76db 583e 75a2 093e 145e dfba 7d59 2bbe
00000320: 324e 92bd 49a4 cbbc 2e4d 14bd 89fd b83e
00000330: 4322 863d 1036 55be 995c 8b3d b63e c2bd
00000340: 7f39 14bd 090f 13bd bcbf 1bbe 73a2 d93d
00000350: 0dcd 80bd c359 e1bd 756f e0bd 57a8 033d
00000360: e0eb 843d 2c8a 103e ca2b 603e c5ce 35bc
00000370: 050d 10bf 15bc 8ebd 37dc 41bd 632a 62be
00000380: 4aef 32bc 62fa 283e b183 1fbe d8a7 14be
00000390: 65ad 67bd 9085 863d 5ce6 9bbd 76dc 14bd
000003a0: 71fa 04be 85ce 823e 355a 2b3e cbc5 31bd
000003b0: f7ca 88bd faf2 1fbc a6b4 7abc c3cb a63e
000003c0: c61d abbd 524a 073e a152 2a3c a4f2 583e
000003d0: 29b8 40be 7e8f 8d3d b468 c2bc d43f ae3d
000003e0: b30b a23e dcca 383d 5681 0fbe d44a a2bc
000003f0: 9d4c aa3e 0793 a03c 4882 94bc 7f54 bd3d

encoder.3.fc2.bias f4 [128]
-0.3324677 -0.23859607 -0.058803756 -0.21239893 -0.24913846 -0.25245312 -0.16700186 -0.21765722
-0.2398527 0.079896756 -0.3236209 -0.406351 -0.27659556 -0.1075222 -0.11204084 -0.043846447
-0.29771027 -0.13951585 -0.3251156 -0.21058355 -0.17867184 -0.059527747 -0.24274103 -0.12721527
-0.0010762385 -0.5825507 -0.10846077 0.01309692 -0.275313 -0.3022623 -0.36034834 -0.19217995
-0.1633526 -0.18317567 -0.27398458 -0.04464503 -0.25639516 -0.122257456 -0.1854946 -0.4912455
-0.25235233 0.021558212 -0.13602823 -0.17693712 -0.045469258 -0.2679697 -0.20842049 -0.28059408
-0.1395657 -0.22009979 -0.042453527 -0.17470978 -0.050016217 -0.24060069 -0.28868583 -0.2828148
-0.28608558 -0.17316286 -0.14977579 -0.19331533 0.25037277 -0.07809412 -0.1487536 0.059565496
-0.12940328 -0.35131034 -0.13124079 -0.1778433 -0.13723259 -0.14965285 -0.050378237 -0.47589624
-0.15750107 -0.31762037 -0.069500454 -0.12869643 -0.22098674 -0.09804239 -0.2755812 0.016281765
-0.2631189 -0.24924594 -0.12306552 -0.22202952 -0.08153317 -0.22450261 -0.011221252 -0.023031281
-0.4713503 -0.19258991 0.020106215 -0.20277871 0.080036044 -0.21323054 -0.1395254 -0.01182866
-0.15663368 -0.16726188 -0.4411135 -0.12134648 -0.2745333 -0.2749808 -0.48357546 -0.22611609
0.045621686 -0.0025376233 -0.40643105 -0.28629524 -0.22094911 -0.12552029 -0.38891718 -0.13867036
-0.15046468 -0.27769127 -0.19821155 -0.22804187 -0.20175725 0.014762129 0.02240147 -0.3728719
-0.12358683 -0.33136544 -0.5476726 -0.28433666 -0.32084498 0.039588843 -0.17570356 -0.11259109
00000000: 3539 aabe 8752 74be 35dc 70bd 1b7f 59be
00000010: 271e 7fbe 8941 81be 8902 2bbe 89e1 5ebe
00000020: f29b 75be e9a0 a33d a3b1 a5be 3d0d d0be
00000030: ef9d 8dbe 9934 dcbd ab75 e5bd 5598 33bd
00000040: 7b6d 98be 3edd 0ebe 8d75 a6be 37a3 57be
00000050: c0f5 36be 5ed3 73bd 1b91 78be b844 02be
00000060: 9210 8dba 0b22 15bf ae20 debd 7794 563c
00000070: d3f5 8cbe 20c2 9abe 947f b8be d2ca 44be
00000080: e745 27be 6792 3bbe b547 8cbe b5dd 36bd
00000090: 3a46 83be 1e62 fabd 4cf2 3dbe 8884 fbbe
000000a0: 5334 81be d99a b03c fc4a 0bbe 012f 35be
000000b0: f93d 3abd 5333 89be 2e6c 55be 07aa 8fbe
000000c0: 50ea 0ebe d761 61be c0e3 2dbd 1fe7 32be
000000d0: cedd 4cbd 0760 76be a1ce 93be 1acd 90be
000000e0: cf79 92be 9b51 31be d35e 19be 74f4 45be
000000f0: dc30 803e cfef 9fbd dd52 18be f3fa 733d
00000100: 4b82 04be f3de b3be fc63 06be 8e1c 36be
00000110: b386 0cbe 993e 19be 6959 4ebd aca8 f3be
00000120: f647 21be 239f a2be 4156 8ebd ffc8 03be
00000130: 594a 62be 73ca c8bd fb18 8dbe 5661 853c
00000140: 85b7 86be 543a 7fbe c609 fcbd b55b 63be
00000150: ddfa a6bd 03e4 65be 58d9 37bc 19ac bcbc
00000160: d454 f1be 4a36 45be cab5 a43c 39a5 4fbe
00000170: f0e9 a33d 1b59 5abe bfdf 0ebe ffcc 41bc
00000180: 9464 20be b346 2bbe a1d9 e1be 8184 f8bd
00000190: a18f 8cbe 49ca 8cbe 3497 f7be fa8a 67be
000001a0: cedd 3a3d 414e 26bb bb17 d0be 4a95 92be
000001b0: 7c40 62be 6488 00be 2720 c7be 9aff 0dbe
000001c0: 6a13 1abe 8d2d 8ebe f8f7 4abe cf83 69be
000001d0: 7499 4ebe dbdc 713c 4a83 b73c 11e9 bebe
000001e0: 181b fdbd bba8 a9be 4634 0cbf 9394 91be
000001f0: cb45 a4be e927 223d a2eb 33be 2896 e6bd
