data/AE_xp_K5_beta0.001_decvarFalse_seed1234_radamTrue_lr0.001_bs64.ckpt (torch, 271450 bytes, 34 tensors)

encoder.nnet.nnet.0.weight f4 [64, 100]
000000 82 88 96 3d 08 9f cc bc 6f 7c 00 bd 65 1e 0e 3d
       0.073502555 -0.024978176 -0.03136867 0.034696955
000010 3a ff 9a 3d 65 f7 a5 3c 1a 45 a2 bc de a9 69 bd
       0.07568212 0.020259568 -0.01980834 -0.057046764
000020 98 9b 9a 3b e7 b6 38 bd 59 22 2c bd ec d8 12 bd
       0.0047182553 -0.045096304 -0.042024944 -0.035851404
000030 66 cb e1 3d 96 b8 a9 3d c6 60 67 3d d5 fd df 3c
       0.11025123 0.0828716 0.056488775 0.027342716
000040 41 7b ad 3c 3b 5e b0 3d f3 f0 ce 3d 1f fa 16 bc
       0.021176936 0.08611723 0.10104551 -0.009214907
000050 2f 57 3e 3d e8 20 04 bc 9e b9 15 3e 75 d7 3e 3e
       0.046469864 -0.008064486 0.14621589 0.18636878
000060 13 38 8c 3c 9c 42 95 3d 80 f0 55 3c 5b bc aa 3d
       0.017116582 0.07288095 0.013057828 0.08336707
000070 40 57 a0 3d 00 7f 62 3c 99 5b 5c bd 85 e6 b1 bd
       0.078291416 0.0138242245 -0.05379829 -0.08686546
000080 24 42 09 bd 78 9d 9d 3d 19 ca b1 bc 5b 66 e1 3d
       -0.033510342 0.076960504 -0.021702813 0.11005851
000090 09 93 0f 3c ec 8f aa 3c ea 4d fc 3c d7 c8 68 3d
       0.008763083 0.02082058 0.030798871 0.05683216
0000a0 22 fb 89 3d 6b e5 f5 bc 9d d8 e6 3c 50 04 9f 3c
       0.06737353 -0.030016622 0.028179461 0.019411236
0000b0 b6 d5 80 bb e1 04 88 3d 7d 45 ba bd 32 8c 57 3d
       -0.0039317263 0.066415556 -0.09095285 0.052623935
0000c0 5f 2b 4f bc 11 0e c4 3c 03 44 a3 3c 67 a8 3b b9
       -0.012644618 0.023932489 0.019929891 -0.00017896444
0000d0 c1 df a7 3d 3f 8d b1 3d d6 72 38 3d 04 89 e0 3d
       0.081969745 0.08669519 0.04503139 0.10963634
0000e0 2b c8 99 3d 5e 23 49 bc f1 b2 3e 3c 43 83 d8 3d
       0.07508882 -0.012276499 0.011639343 0.10571911
0000f0 bf 5f 30 bd cd 65 62 bd e3 2f a0 3d 3c 85 4c 3d
       -0.04306006 -0.055272866 0.07821634 0.04993175
000100 66 f7 a0 3c cb f5 43 3d ab 48 7c ba 2b 1b cd bd
       0.019649219 0.04784183 -0.00096238655 -0.100149475
000110 ee 5e 54 bd 62 ae c8 bd 1b cf ca bd 35 50 8b bd
       -0.051848345 -0.09798886 -0.099027835 -0.06802408
000120 da 8f b6 bd f8 f3 e1 bd b3 92 25 bc 7a 07 1d be
       -0.08914156 -0.110328615 -0.010105777 -0.15334883
000130 3b c6 c2 bd 92 e0 40 be 03 47 37 be 63 ff b0 bc
       -0.09510466 -0.18835667 -0.17898183 -0.021606153
000140 ae 0e d5 bb 3c 07 7c bd 1f 49 15 be 4e 6d 51 be
       -0.006501994 -0.061530337 -0.14578675 -0.20451853
000150 57 b8 72 be 43 fe c4 bd 07 a8 e6 bd 0e 9d 33 be
       -0.23703133 -0.09618809 -0.112625174 -0.1754038
000160 ac 4f 10 be 12 90 3d be 6f 46 31 be 47 3c 81 be
       -0.14092892 -0.1851199 -0.17312025 -0.252413
000170 fb de 84 be 3e c2 fa bd b1 a9 e9 bd 7e b1 fe bc
       -0.2595137 -0.1224408 -0.11409319 -0.031090494
000180 51 69 ea bd f6 8c 1c bc 0f 19 bf 3d 23 5f 41 bd
       -0.11445869 -0.009555092 0.093309514 -0.04720987
000190 3b 8b f9 3d 6c 90 8e 3d 39 08 43 3e 96 66 d4 3d
       0.12184759 0.0696114 0.19046105 0.10371129
0001a0 67 63 4f 3e 50 6a e0 3d 2b 24 62 3e c3 6b a9 3d
       0.20252763 0.109577775 0.2208411 0.08272507
0001b0 a2 99 07 3d 94 a2 0c 3e 76 92 85 3d 95 01 14 3e
       0.0331055 0.13733894 0.06522076 0.14453728
0001c0 8d 48 aa 3d 03 16 07 3d fd 53 08 3d 49 72 da bc
       0.08314619 0.032979976 0.033283222 -0.026665824
0001d0 6b 84 82 3d 35 4e 4c bd 97 19 27 3e 30 e6 b5 3d
       0.06372913 -0.04987927 0.16318356 0.088817954
0001e0 36 53 03 3e 14 f2 d5 3c 65 bf 10 3e 8e 28 0b 3e
       0.12824711 0.026116408 0.14135511 0.13589689
0001f0 eb 3a 43 3d 4e 48 60 3e 81 19 5b 3e f7 15 ee 3d
       0.04766361 0.21902582 0.21396448 0.11625283
000200 21 16 3d 3e 8d 7c 9b 3d a0 64 6c 3d 19 d4 87 3d
       0.18465473 0.075921156 0.05771315 0.06632251
000210 5c 7e 9c 3d 0d 70 58 3e 02 ee 28 3e 34 d2 ae 3d
       0.07641289 0.21136494 0.16497043 0.08536187
000220 f9 57 53 3c 39 4d c0 3c 9c 37 0a bc f0 98 e7 3d
       0.012899392 0.023474323 -0.00843611 0.113084674
000230 a8 57 9e 3c 0b cc e5 bb d8 47 ca bc 49 31 e3 3d
       0.019328907 -0.007012849 -0.02469246 0.11093385
000240 33 ff 06 3e f9 9c a1 3d 8e 95 56 3e 69 92 bc 3d
       0.13183288 0.07891268 0.20955488 0.09207613
000250 2b df 9d 3e 75 65 ba 3e 45 56 6e 3e 64 f7 b7 3e
       0.30834326 0.3640553 0.23275097 0.35930932
000260 83 e1 bb 3e 0b f8 b0 3e 03 ca 95 3e 4a ec f5 3d
       0.3669549 0.34564242 0.29255685 0.12007959
000270 32 88 13 3e bc 35 db 3d e5 23 d5 3d 84 dc 3a 3e
       0.14407423 0.107036084 0.10407237 0.18248183
000280 27 f0 88 3d c7 9e 9b 3c 77 76 a3 3d 61 98 c0 3c
       0.066864304 0.01899661 0.0798158 0.02351016
000290 f5 3c 56 3d 57 8e 1a 3e c8 97 8b 3d 1d 3b 8f 3b
       0.052304227 0.15093361 0.06816059 0.0043710605
0002a0 9f c5 0d bd 2f aa ee 3c 25 86 82 bd 7f f1 9a bd
       -0.034612294 0.029133884 -0.06373242 -0.07565593
0002b0 b9 63 b9 3b a6 92 96 bd 9b 06 82 bd 28 64 85 bd
       0.00565764 -0.0735219 -0.06348916 -0.06513244
0002c0 d2 2c 06 be c3 d8 a7 bd b1 52 85 bd 20 0a 19 be
       -0.13103035 -0.08195641 -0.06509913 -0.14945269
0002d0 18 b2 89 bd bc 66 44 bd 0f 1c ac 3c 60 6d 7f 3d
       -0.06723422 -0.047949538 0.021009473 0.062360168
0002e0 cf ca 8b ba 20 80 44 bd 9f a1 82 3c 66 8a 0c 3d
       -0.00106653 -0.047973752 0.015946208 0.034311675
0002f0 58 7e aa bd 7c cb a9 bd ad 97 5d bd 69 f6 83 bd
       -0.083248794 -0.08290765 -0.054099727 -0.064434834
000300 57 55 3a 39 c1 12 9d 3d be 7d 3d 3c bf 16 69 bc
       0.00017770134 0.07669593 0.011565624 -0.0142266145
000310 6f 93 f9 3d ac 25 38 3e a0 91 c6 3d de b3 3f 3e
       0.12186324 0.1798312 0.096957445 0.18720958
000320 6d d4 92 3d 5b 95 66 3a a0 75 61 bc 54 cc 92 3d
       0.07169423 0.00087960594 -0.013760954 0.07167879
000330 36 f5 8f bd 29 99 8d bd 66 34 7a 3d 82 14 ae bd
       -0.07029192 -0.069139786 0.061085127 -0.08500005
000340 6e 17 2d 3d 85 b9 86 bd 2f 04 1e 3e c0 8f c7 3d
       0.042258672 -0.06578354 0.15431283 0.09744215
000350 02 0c 47 3e b7 53 8e 3d d4 92 0d 3e 53 8c 6f 3d
       0.19438174 0.06949561 0.13825542 0.058483433
000360 d1 30 45 3d 7f e4 07 3e 0e c6 2f 3c cd 58 aa 3c
       0.048142258 0.13270758 0.010728372 0.020794297
000370 ef e7 1a 3e 48 54 25 3e 1d 2b c0 3c cf c8 34 3e
       0.15127538 0.16145432 0.023458058 0.17654727
000380 7d 6e 2e 3e cc 81 fe 3d db 66 38 3b b5 d0 b9 3d
       0.17034335 0.124271005 0.0028137479 0.09073011
000390 5d 89 23 3d 95 31 79 3d f8 78 9f 3c 5c 57 03 be
       0.03992592 0.0608383 0.019466862 -0.12826294
0003a0 c9 c0 32 be 95 20 fb bd 12 07 6f be ab 85 86 be
       -0.17456354 -0.12262074 -0.23342541 -0.26273856
0003b0 84 2e 5c be dd a1 15 be 83 9c e3 bd e5 99 89 be
       -0.2150212 -0.14612527 -0.111138366 -0.26875225
0003c0 d5 9b 44 be db 07 50 be 20 30 85 bd e9 c8 80 bd
       -0.1920007 -0.20315497 -0.0650332 -0.062883206
0003d0 5b 98 40 3e a0 19 3b 3e 0a aa 8a 3d 46 fd 1a 3e
       0.18808119 0.18271494 0.067707136 0.15135679
0003e0 fe 5c 62 3e ec 17 27 3e 05 42 c6 3c b4 ec 0c bd
       0.22105786 0.16317719 0.024201402 -0.034405425
0003f0 78 1a 81 3d 08 5b 64 3d 7a 4f 87 bc c0 b8 20 3c
       0.06303877 0.055750877 -0.01651739 0.009809673

encoder.nnet.nnet.0.bias f4 [64]
000000 f7 c9 f5 bc 78 0b 38 bc 09 e8 27 3d 52 d2 b0 bd
       -0.03000353 -0.011233203 0.04099277 -0.086338654
000010 e2 9f 4f bd 3a 0b 32 3d b3 30 d5 bd 8b 7f d6 bb
       -0.050689586 0.043467738 -0.10409679 -0.006545966
000020 ac f2 b8 3d 0b cf 74 bd 55 22 bc 3b c3 8b 3b 3e
       0.09030661 -0.059767764 0.0057413974 0.18315034
000030 f0 be e0 3d 87 7d 05 3e a9 c5 90 3d e7 3f 55 bd
       0.109739184 0.13036166 0.07068951 -0.052062895
000040 c3 e1 0c bc d3 61 04 bd 75 11 57 bd a4 40 39 bd
       -0.008598748 -0.032319855 -0.052506883 -0.04522766
000050 2e 31 46 3d 06 45 bd 3b 42 ff 8e 3d 1a 65 4e 3d
       0.048386745 0.0057760505 0.0698228 0.050389387
000060 a2 59 68 3d 31 7b e3 3c d1 54 69 3d 62 fb 49 bd
       0.056726106 0.027768703 0.056965653 -0.049312003
000070 5a 1e a5 3d 98 32 0f be ae de 4d bc 68 ed 24 3c
       0.0806243 -0.13984144 -0.012565298 0.010066368
000080 68 ec 66 3b 69 bd e3 3b 64 bf 07 3e 1e fc b5 3d
       0.0035236124 0.0069500697 0.13256603 0.08885978
000090 d8 83 87 3c 34 fd 28 3c b4 fa 1d 3e 7f 8e 93 bd
       0.01654236 0.010314275 0.15427667 -0.07204913
0000a0 68 96 c0 3d d1 4e 5a 3d 0a 0d da 3d e6 18 58 3b
       0.09403688 0.05329782 0.10647018 0.0032973825
0000b0 af f9 c1 bd fa ef 34 3d 33 54 95 bd a9 f1 7a bc
       -0.094714515 0.044174172 -0.0729145 -0.015316405
0000c0 12 af 7a 3e 4b 6c c7 3d 98 a7 b1 bc a8 d1 ce 3d
       0.24480847 0.09737452 -0.02168636 0.100985825
0000d0 ee bb 2a 3d 57 b2 84 39 98 6a 22 3e 4c f5 5b 3d
       0.04168313 0.00025309875 0.15860975 0.05370073
0000e0 ca 75 c3 3d 22 e0 82 bb 70 2b ac 3d 7d 17 2f 3d
       0.09543951 -0.003994004 0.084067225 0.04274701
0000f0 ad cb 8a 3d 23 0a aa bc cf 7e 96 3d 38 10 29 3d
       0.06777129 -0.020756787 0.073484056 0.041275233

encoder.nnet.nnet.2.fc1.weight f4 [64, 64]
000000 ad f4 3f bd 8b 88 3f 3c fa c1 58 3d 65 6b 66 3d
       -0.0468642 0.011690269 0.052919365 0.056254763
000010 84 4b 51 3d 50 58 94 be 01 c1 da 3b 66 b4 86 3d
       0.051097408 -0.28973627 0.00667584 0.06577377
000020 24 bf 27 bd 1a c6 33 3e c9 13 3e 3e a2 d0 d3 3e
       -0.04095377 0.17556038 0.18562235 0.41370112
000030 89 1d 3f 3e a3 9a 28 3e 8b 73 ec 3c 95 ca 07 be
       0.1866361 0.16465239 0.028863689 -0.13260873
000040 57 9b 0d 3c ba f0 9e 3d 1b b0 3e bd fe ba c2 3d
       0.008642993 0.07760759 -0.046554666 0.09508322
000050 bc c1 c4 bc f4 65 49 3e ca da 60 bd 15 b4 01 3d
       -0.024018161 0.19667798 -0.054896154 0.03166588
000060 fe f2 d2 bd 31 09 4a 3d 94 09 e6 bd 54 03 af 3d
       -0.10300253 0.04932517 -0.11232296 0.08545557
000070 01 1c 77 be 92 e8 82 be aa 1e 22 be 1f 07 49 3c
       -0.24131776 -0.25568062 -0.1583201 0.012269764
000080 b8 b4 1f be 61 b4 8f bd e8 4f 38 3d 42 d0 88 bd
       -0.15596282 -0.070168264 0.04499808 -0.06680347
000090 ce bb 98 3e d1 b8 16 be 5d be b7 3e be c9 11 bd
       0.29830784 -0.1471894 0.35887423 -0.035592787
0000a0 95 a7 18 3e 4e 23 1e 39 c5 d7 fd 3c 2e 58 99 bc
       0.14907677 0.00015081206 0.030986676 -0.018718805
0000b0 e1 07 e4 3a 3d e3 09 be 52 5c 3a bd ac b3 07 bc
       0.0017397368 -0.13465591 -0.0454982 -0.008282583
0000c0 14 eb 56 be cb b2 ef bd 33 ab 0d be a9 44 2a be
       -0.20988113 -0.11704024 -0.13834839 -0.16627754
0000d0 9d 59 96 3e 49 e0 46 3d 7e af 61 bc d3 cd 11 3e
       0.29365245 0.04855374 -0.013774751 0.14238672
0000e0 47 34 a6 bd 31 30 09 3e c9 ff 3a 3e b6 a7 11 3e
       -0.0811544 0.1339729 0.18261637 0.14224133
0000f0 a9 8d b9 bc f4 16 19 3d 89 e4 b2 3d 21 28 c5 bd
       -0.022650557 0.037375405 0.08734996 -0.096267946
000100 cc 7a 96 bd 74 5d aa bd 8a 5f c2 bd ee 7f c7 bd
       -0.073476404 -0.08318606 -0.09490879 -0.097411975
000110 b6 04 be 3b a7 0a 60 3d 06 85 f6 bd 13 6e a1 bd
       0.0057989014 0.05469766 -0.12037091 -0.07882323
000120 24 6f 09 3d 73 48 9b 3b b3 68 3b 3d da 88 10 bd
       0.033553258 0.004738861 0.045754146 -0.03528676
000130 c7 11 19 3c b9 78 8d bd 85 ac 04 3e 82 d9 0c bc
       0.009342617 -0.06907792 0.12956436 -0.00859678
000140 d8 22 b3 3d 2b 3c 6d bd 5c 43 4c 3d e1 b7 38 bc
       0.0874688 -0.05791871 0.049868926 -0.011274309
000150 15 c1 bb 3b d9 ac a9 3d 15 24 b5 3c 39 fa 36 bd
       0.0057298043 0.08284921 0.022111932 -0.044672225
000160 88 b6 9b 3d c2 e1 44 3d d1 5e 4e bc 57 f4 7a bd
       0.076031744 0.048066862 -0.012595848 -0.061268177
000170 d7 e0 01 3e c8 90 8e 3d 23 6a 4e be 6e 87 0f be
       0.12683426 0.069612086 -0.20157675 -0.14016506
000180 47 ee 8c bd ce b7 1f bb 01 da ce bd 14 3e df 3d
       -0.06881385 -0.002437103 -0.10100175 0.10900512
000190 b8 c7 e6 3d 2f bd 1e 3e be 67 ea 3d c2 e0 b7 3d
       0.11268562 0.15501855 0.114455685 0.08978416
0001a0 02 47 e0 3d e8 4a b9 bb cf 32 ae bd d2 b2 bf 3d
       0.10951044 -0.0056546815 -0.08505785 0.09360279
0001b0 62 d2 ab bd cd 8b a4 bd 8f 09 63 3c cb 5e 03 3b
       -0.08389737 -0.080344774 0.013857259 0.0020045515
0001c0 ec bc ca 3d fa b6 a6 bd 7a 2f 17 3e 60 8c f0 bd
       0.09899315 -0.08140369 0.14764205 -0.117455244
0001d0 ee f8 59 3d c8 29 c3 3d 23 ea af 3d a4 22 c5 3d
       0.053215913 0.095294535 0.0858958 0.09625748
0001e0 06 bc 43 3c 09 e9 e8 bc 60 8b db 3d 49 ea 98 bc
       0.011946684 -0.028431432 0.10719943 -0.018666403
0001f0 32 fc 8c bd d4 2d c0 bd 19 51 f4 3b d4 93 22 3e
       -0.0688404 -0.09383741 0.0074559567 0.15876704
000200 46 3f ff bd 57 b7 b4 3c dd 23 d8 3d d7 f1 b4 bc
       -0.1246324 0.02206008 0.105537154 -0.022087974
000210 d4 ae bf 3c ca 8f 43 3d ec 2c 10 bd 11 36 eb bd
       0.023398794 0.04774455 -0.03519909 -0.11484922
000220 5c 9f 7b 3d 36 33 ae 3c 43 30 2c be 2c fc 22 be
       0.061431274 0.021264654 -0.16815285 -0.15916508
000230 b4 2a af bc fe 56 71 bd 15 dc 04 3d cf 36 b8 3d
       -0.021382667 -0.058920853 0.03243645 0.08994829
000240 0d bb 7a 3c 67 f8 e3 bc 0b 2b 45 be cd f3 8b 3e
       0.015303385 -0.027828408 -0.19254701 0.27334443
000250 93 de 65 3d 9a c2 74 be 17 d4 4b bd 05 df bc bd
       0.056120466 -0.2390236 -0.04976281 -0.09222225
000260 d1 5b ba 3c c3 39 65 bd 3a 82 f3 3d d3 50 e8 bb
       0.02274886 -0.05596329 0.11890073 -0.007089713
000270 77 1d f9 3d e5 78 25 3d a4 16 f6 3c 5b 4a 8e 3d
       0.12163823 0.040398497 0.030040093 0.06947776
000280 dd c5 0a be af 48 39 bc 4e d8 dc 3d b8 97 43 bd
       -0.13552041 -0.011308833 0.10783444 -0.047752112
000290 1a d2 94 be 4b 7a 54 bc 45 bf 90 3e b7 ff 95 3d
       -0.29066545 -0.01296861 0.28270927 0.07324164
0002a0 1f f5 b5 3d 0e 17 85 bd e6 f2 8c 3c 77 29 c1 bc
       0.08884644 -0.06498538 0.017205667 -0.023579342
0002b0 9a e8 0c 3d 6f 95 29 bd 09 e3 e0 bd 01 db b2 bc
       0.034401514 -0.041402277 -0.109808035 -0.021832945
0002c0 65 5d 24 be e3 7d 2d be c4 04 2c 3e e4 0e e6 3d
       -0.16051252 -0.16942553 0.16798693 0.11233309
0002d0 a6 68 3b bc 0e d6 92 bd d0 0d 12 be d6 1c 41 bd
       -0.011438524 -0.07169734 -0.14263082 -0.04714664
0002e0 0a 3a 53 bd 67 6b 5a bc 1c 57 f7 bc f7 ee 0a bd
       -0.051569022 -0.013331271 -0.030192904 -0.0339193
0002f0 3d 45 aa bd 16 26 b6 be e1 ed c2 3d aa 3a fa bd
       -0.083139874 -0.35575932 0.09518028 -0.122182205
000300 2e 50 28 3e 3e 0c f2 3d f4 0f b3 3d c3 b8 fb bc
       0.16436836 0.11818741 0.08743277 -0.03072775
000310 b0 7c 94 bd 5e c4 fa bd a9 7e 34 be 94 d4 ca bd
       -0.07250345 -0.12244485 -0.17626442 -0.09903827
000320 88 5c 62 3e f8 cd f4 bd 9b 1a 9d 3d 57 14 17 3e
       0.2210561 -0.11953348 0.0767109 0.14753853
000330 53 12 87 bd 7f ed 12 3e 2b e3 8f bd f8 f3 45 be
       -0.06595292 0.1434841 -0.07025751 -0.19331348
000340 8b c5 43 bc 89 a0 10 3d 23 d9 07 be e8 a7 38 3d
       -0.011948953 0.03530935 -0.13266425 0.045082003
000350 cb 92 b9 be b2 2b fa 3b 42 79 ff bd 59 a4 03 bd
       -0.36244807 0.0076346034 -0.124743 -0.032139156
000360 33 21 99 3a 4c ed f0 bd d7 76 33 bc 21 b2 bc 3d
       0.0011682868 -0.11764011 -0.010953627 0.09213663
000370 a3 d6 20 be f6 7c 93 bc 19 bb 50 bc a9 5a b2 3d
       -0.15706877 -0.018003922 -0.01273992 0.08708698
000380 de c5 ba 3d 98 3b 06 be 45 8e 3e be ed 22 65 bd
       0.091197714 -0.1310867 -0.18608959 -0.05594151
000390 75 5d 18 be 81 69 61 bd 36 41 24 3d 15 d7 3b be
       -0.14879401 -0.055032257 0.040101252 -0.18343766
0003a0 2e d0 14 bc 7a f6 ec bd ad 65 a0 3d 1b 22 8b bd
       -0.009082837 -0.11570449 0.07831893 -0.067936145
0003b0 40 94 0c be 69 3f cd 3c bf f9 0c be c8 88 91 3d
       -0.13728428 0.02505465 -0.13767146 0.07106167
0003c0 66 c2 02 bf fa 9a 29 3e 9a 79 5a be 65 61 13 be
       -0.5107788 0.16563025 -0.2133545 -0.14392622
0003d0 fb fe 64 bd 1c b2 66 3d 67 0f c3 3b d0 42 45 be
       -0.05590723 0.056322202 0.005952764 -0.19263768
0003e0 97 fd 8d 3d f2 9b 7e 3d f9 2b 23 be 6b d0 67 be
       0.06933134 0.06216044 -0.15934743 -0.22638099
0003f0 93 db 0d bd fb dc 80 bc 7d 03 ef bd ca 63 b8 bd
       -0.03463323 -0.015730372 -0.11670587 -0.09003408

encoder.nnet.nnet.2.fc1.bias f4 [64]
000000 95 8e eb 3d 1b 28 4d 3d cf e3 a1 3d 73 ec 7e bd
       0.11501805 0.050087076 0.07904779 -0.062237214
000010 07 0d 34 bd 4b 39 74 bd 2a 2e 54 bd 85 99 1f bd
       -0.043957736 -0.05962495 -0.051801838 -0.038964767
000020 0a 44 6f bd 35 37 4b 3d df a9 10 bb 4a db ab bd
       -0.058414496 0.049613196 -0.0022073907 -0.083914354
000030 32 57 08 bd f1 11 8d bc 13 11 12 bd 24 30 6a bd
       -0.03328628 -0.01722047 -0.035660814 -0.057174817
000040 06 fc 1e bd 93 1b 64 bd 48 e9 96 3d 34 70 82 bd
       -0.038814567 -0.05569036 0.073687136 -0.06369057
000050 cc bf 08 be 34 bc 28 3d 06 6f fd 3c bd 65 1a 3d
       -0.13354415 0.04119511 0.03093673 0.03769468
000060 78 52 12 3d a1 a5 e7 3c 85 09 1c 3e 06 8c 69 bc
       0.03572318 0.02827722 0.15238006 -0.014254576
000070 af bb 72 3c e8 e3 27 bd df f1 d1 bb 4b d3 a5 3c
       0.014815255 -0.040988833 -0.006407007 0.020242354
000080 97 86 ae 3c ef a8 99 bd 48 d6 40 bb a4 ee bc 3c
       0.021304412 -0.07502925 -0.0029424597 0.023063011
000090 b0 3c 67 3c 51 db b3 b9 c1 5c bb bc ac 3c ea bd
       0.01411359 -0.00034304944 -0.022871377 -0.114373535
0000a0 d2 d7 0a be e8 ed 07 bc c1 af 23 bd 9b f5 f1 3b
       -0.13558891 -0.008296467 -0.039962534 0.007384015
0000b0 74 c4 bd 3d 2f 5a 21 3d f8 f3 bf 3b 5d c3 2b bd
       0.09265986 0.039392646 0.0058579408 -0.04193436
0000c0 06 83 a2 bd f8 f7 d1 3d 26 94 d4 bd 2f 61 a0 3d
       -0.07935147 0.102523744 -0.103798196 0.07831036
0000d0 01 a5 f7 bc 39 7f 80 bc 3a ef fb bd 7d e9 7a 3d
       -0.030230047 -0.015685664 -0.12301488 0.061257828
0000e0 d9 22 ba 3d f7 a8 8c 3d 59 82 0e bd e1 75 d4 3c
       0.09088678 0.06868165 -0.034792278 0.025935115
0000f0 86 d9 04 3e 8f 4a 4b bc 33 ae 3a bc 08 10 95 bd
       0.12973604 -0.012407913 -0.011394071 -0.07278448

encoder.nnet.nnet.2.fc2.weight f4 [64, 64]
000000 8d fe ec 3c 85 e7 84 be 8a e0 16 bd 85 3e fc 3d
       0.028929973 -0.25957885 -0.03683523 0.12316612
000010 b7 31 78 bc 85 7d 3c 3c b5 b4 09 3e 28 9d ed bd
       -0.015148572 0.011504536 0.1344784 -0.11602241
000020 57 1a f7 3d 1d 9b b8 3c a9 4a d3 bc b0 f4 53 bb
       0.12065571 0.022534901 -0.025792437 -0.003234189
000030 77 04 5b be a2 8e e0 bc f2 6f 3d 3e f2 58 28 bd
       -0.21388422 -0.027411763 0.18499735 -0.04110045
000040 e2 9a 56 be 88 62 93 3d c4 ab 66 be dc cc 24 3e
       -0.2095752 0.07196528 -0.22526461 0.16093773
000050 6d ba 95 be 98 37 19 bb 80 75 bc 3d 31 b3 87 3c
       -0.29243794 -0.0023379084 0.09202099 0.016564937
000060 71 2f 35 be 53 f8 e1 3d 00 39 a9 3d e6 cc a9 3d
       -0.17693879 0.11033692 0.08262825 0.082910344
000070 76 75 ca 3d 27 25 16 3d a9 e5 ce bd 80 c0 85 be
       0.09885685 0.036656525 -0.10102398 -0.26123428
000080 00 0c 66 be b5 1d 86 bd 86 28 92 bc 08 e3 b5 be
       -0.22465515 -0.06548635 -0.017841589 -0.35524774
000090 72 b8 42 be f4 03 c1 bd af c6 b7 3d 76 7f 53 be
       -0.19015673 -0.09424582 0.08973443 -0.20654091
0000a0 b4 d3 82 bd a5 24 52 3e a4 1f 9f 3d 3a e8 26 bd
       -0.063880354 0.20521791 0.07769707 -0.040748812
0000b0 75 9c 37 be d7 79 e2 3b 7f bd 36 3e ff a9 ef bd
       -0.17930777 0.006911497 0.17845725 -0.11702346
0000c0 12 f6 bd 3d 76 ed 88 bd 6b 1b 0b bd da 05 94 3c
       0.0927545 -0.06685917 -0.033961695 0.018069196
0000d0 55 69 7d bd 76 79 03 3e 9e a2 b0 3d 79 b1 ca bd
       -0.06186803 0.12839302 0.08624767 -0.098971315
0000e0 9e 5d 81 be bb 91 6a bd ea ce 42 be 21 75 17 be
       -0.25266737 -0.057267886 -0.19024244 -0.14790775
0000f0 76 7c b4 bd b1 2d 0e be d8 be 23 be bf 36 88 3e
       -0.088128015 -0.13884617 -0.1599077 0.26604268
000100 db f0 b1 bd 45 f2 80 3d cf d7 3b bd 45 f8 89 bd
       -0.08688518 0.06296209 -0.045860108 -0.06736807
000110 8f 7d 14 bd cd d8 a8 bd b3 54 64 3d 27 25 b6 bd
       -0.036252555 -0.082444765 0.055744838 -0.08893805
000120 db 6f 53 3e 7b e5 1a be 60 59 0c be a4 4a e5 bd
       0.20648138 -0.15126602 -0.13705969 -0.11195877
000130 21 76 44 bd ca 6b b5 3d 25 9a bf bd bb 6f 47 3c
       -0.04796422 0.0885845 -0.093555726 0.012172635
000140 fc 99 b4 3d 81 77 bf 3d 67 42 9b bd 9e 94 98 3d
       0.08818433 0.093489654 -0.075810246 0.074502215
000150 12 27 3a be 48 cb 9d bd 88 74 65 be 3e 4c ed 3d
       -0.18178967 -0.077047884 -0.22407734 0.11586808
000160 af c3 c4 bc 56 54 96 bd 40 43 88 3d 93 b9 7b 3d
       -0.02401909 -0.073403046 0.06653452 0.061456274
000170 bb a2 15 3d 88 c3 76 bd 04 29 d9 bd 99 16 6e 3b
       0.036532145 -0.060245067 -0.10603526 0.0036329387
000180 cb 32 91 3d 14 92 e6 3b 88 f2 de 3d 31 97 dc 3c
       0.07089766 0.007036457 0.10886103 0.026927562
000190 74 4f 26 bd 56 a8 86 3d fb f3 b2 bd 03 a8 24 bc
       -0.040603116 0.06575076 -0.08737942 -0.010049823
0001a0 b8 74 ed 3d 8e 26 05 be a9 a2 7a be e9 54 17 bd
       0.11594528 -0.13002989 -0.24476112 -0.03694621
0001b0 25 9e 82 3d 68 79 d8 3d a4 d8 fd 3c 1b 5b a2 bb
       0.0637782 0.105700314 0.030987091 -0.0049547083
0001c0 1e b5 bb 3d 4f 2b a4 bd 05 14 11 3c 25 c0 05 ba
       0.09165405 -0.08016073 0.008854871 -0.0005102179
0001d0 f9 01 02 3c 7b 8a 2e bd 41 f3 21 bd 85 84 2e 3d
       0.007935041 -0.042612534 -0.039538626 0.04260685
0001e0 2b a5 f0 bc 72 ab 94 3b af 68 01 be 19 d7 01 3e
       -0.029375633 0.0045370394 -0.1263759 0.1267971
0001f0 8d 0d b2 bd 85 a7 46 bd 4d b9 9f 3c c6 78 b0 bc
       -0.08693991 -0.048499603 0.019497538 -0.021541964
000200 f1 cb a5 bd 77 4b b3 bd e4 66 48 3d 65 86 21 3b
       -0.08095539 -0.08754628 0.04892625 0.0024646756
000210 93 b6 9c ba d4 c6 c3 bc 80 4f 0d be d8 05 0c be
       -0.0011956267 -0.02389852 -0.13799858 -0.13674104
000220 1e 5e ee 3d 28 02 53 bd 32 93 ad bd c5 10 b4 bd
       0.11639045 -0.05151573 -0.08475341 -0.08792261
000230 b1 3d a4 bd 8d fa ff 3d 21 5e 90 3d 7a 0b a9 3c
       -0.08019579 0.12498961 0.07049204 0.020635355
000240 76 3b f8 3d 35 32 03 3e 54 43 1a be 50 37 61 bd
       0.12120716 0.12812121 -0.15064746 -0.05498439
000250 08 f4 05 bc 48 92 0e be 97 1e 08 be ce fb 8d bd
       -0.008175857 -0.1392299 -0.13292919 -0.069327936
000260 fd 6b f0 3d 7b a5 92 3c 36 4b 76 3d 23 3e 1d 3d
       0.11739347 0.017901173 0.06013032 0.038389336
000270 f3 fd 93 3d 09 1a a1 bb ba d9 95 bd f4 e2 98 3d
       0.07226171 -0.0049164337 -0.07316919 0.07465163
000280 a9 b1 9f bd 76 12 aa 3d 44 e0 08 be c5 09 9c 3a
       -0.07797558 0.083043024 -0.133668 0.0011904767
000290 a3 00 a2 3d 5b df 83 bd 06 fa e1 3d 59 19 24 3e
       0.07910278 -0.06439086 0.11034016 0.16025294
0002a0 18 c0 82 3b 38 5a a4 bc ba d2 02 bc c5 82 c9 bc
       0.0039901845 -0.02006255 -0.007984811 -0.024598489
0002b0 9a 49 61 bc f9 8f b2 3d a1 3a e6 bd 4f c0 c1 bd
       -0.013750458 0.08718867 -0.11241651 -0.09460508
0002c0 dc ac 16 be 2b 8c 82 3d f1 78 a6 bd 1b 67 83 3d
       -0.14714378 0.06374391 -0.081285365 0.0641615
0002d0 b5 9e 3c 3e 37 11 95 bd f0 78 50 3d a4 d0 c7 b8
       0.18419917 -0.07278674 0.050896585 -9.527922e-05
0002e0 89 7f 3f bd bb 2b 23 be 31 19 1d 3d 75 0f e6 3d
       -0.046752486 -0.1593465 0.038354103 0.11233417
0002f0 eb 4a d8 3d d3 1b b1 3d 30 bd c0 bd 1c 2e 82 bd
       0.105611645 0.08647885 -0.09411085 -0.06356451
000300 91 bd 6d 3d 4f 59 86 be 1e d3 09 be 2d bd 91 3d
       0.058042113 -0.26240012 -0.13459441 0.071161605
000310 99 ad 7a 3d 52 7b 72 bc 1f 25 3f 3e 7e 56 94 3d
       0.061200712 -0.01479991 0.18666504 0.072430596
000320 66 db 46 3d e3 c0 ea 3d 13 73 11 3e 8d 34 f0 3c
       0.04854908 0.114625715 0.14204054 0.029321933
000330 49 79 cd bc 94 88 80 bd 61 34 f8 3d d9 7e 4e 3d
       -0.025082247 -0.0627605 0.121193655 0.05041394
000340 56 6c 14 be 71 f3 62 be a6 14 b2 3d 47 37 8a 3d
       -0.14494452 -0.22163178 0.086953446 0.067488246
000350 3e 9d 35 3d 2a ba 0d 3e 61 87 5a 3e 72 8f 03 3d
       0.04433941 0.13840547 0.21340705 0.032119222
000360 c6 f0 0e bc e0 97 26 3e 02 d3 28 bd b1 00 09 3e
       -0.008724397 0.16268873 -0.041216858 0.1337917
000370 02 17 46 3d dc 9d a3 3d 1a 15 09 3d ce cb 2a be
       0.048361786 0.07989094 0.03346739 -0.16679308
000380 9b ba d3 bd f1 3a 25 be 89 e4 4b 3d 57 15 83 be
       -0.103383265 -0.16135766 0.049778495 -0.25602219
000390 4b 0c dd bd 58 8e a7 bc ce b1 ed 3d a1 75 b1 be
       -0.1079336 -0.020453617 0.11606179 -0.34660056
0003a0 f4 f5 01 3e c7 be a5 bc 3f fc 80 3d de 3d 0d 3c
       0.1269148 -0.020232571 0.06298112 0.008620707
0003b0 35 34 99 be 6c 21 2b 3e 6d 21 74 bd 2b 3e 4d 3d
       -0.29922643 0.16711968 -0.05960219 0.050108116
0003c0 ea 45 80 bd 1e f8 98 bd 73 5f e0 3d 8a 61 e4 3d
       -0.06263335 -0.074691996 0.109557055 0.111514166
0003d0 7a b1 3e bd 21 f8 4f 3e c2 d3 c8 3c 99 8b 46 be
       -0.046555974 0.20309497 0.024515036 -0.1938919
0003e0 6e ad 36 be 11 ab 46 be 3b 5c 1b be ef ac 48 be
       -0.17839596 -0.19401194 -0.15171902 -0.19597219
0003f0 f5 ac 46 be f4 44 3f be 4f 07 00 bb 8a 9c ae 3b
       -0.19401915 -0.18678647 -0.0019535606 0.0053287195

encoder.nnet.nnet.2.fc2.bias f4 [64]
000000 ec 30 5c bd b9 14 b8 3d 7b ea 6c bd df fd 6d 3c
       -0.053757593 0.089883275 -0.057840806 0.01452586
000010 90 3e 8a 3d c8 fb 8f 3c da 30 54 3d a3 9d af bc
       0.06750214 0.017576113 0.0518044 -0.021437472
000020 1e d0 97 bd 06 8a 04 3c 16 8a 38 bd 2f 23 f6 3c
       -0.07412742 0.008089548 -0.045053564 0.030046074
000030 b6 37 02 bd 19 a0 11 3c d0 27 8f b8 13 91 c9 bd
       -0.03179141 0.008888268 -6.826187e-05 -0.09842124
000040 67 15 d9 3d 94 cf b6 bd 5c af 81 be d7 bc ea 3d
       0.10599785 -0.08926311 -0.253291 0.114617996
000050 bd 6c d7 bc 5c d7 fe 3c 1e eb 59 3c 24 64 9c bd
       -0.026296968 0.03110855 0.013300685 -0.07636288
000060 92 11 c3 bd 85 2f 69 be 0a 01 87 bd 5d 58 47 3d
       -0.09524836 -0.22772034 -0.06591995 0.048668254
000070 ec 58 c6 bd d5 ba a0 3d 40 50 13 be 6d 99 44 3d
       -0.09684929 0.078481354 -0.14386082 0.04799788
000080 ef d9 1a 3e d0 fc d9 bc c6 9f 55 3d 05 31 5c bd
       0.15122198 -0.026609808 0.052154325 -0.053757686
000090 07 62 ef 3d fd 92 9f 3a 02 18 35 bd fc 08 84 3d
       0.11688619 0.0012174543 -0.04421235 0.06447026
0000a0 d0 f0 e1 3d 41 20 08 bd f9 fe 3d be ff 2e 0e 3d
       0.110322595 -0.033233885 -0.18554296 0.034712788
0000b0 43 e5 00 3e fc 2d 10 3d 34 a2 99 3a 88 d3 af bd
       0.12587456 0.035200104 0.0011721314 -0.08585268
0000c0 42 8c 20 3e 84 c1 1f 3d 09 20 33 bc 56 60 02 3e
       0.15678504 0.03900291 -0.010932931 0.12732062
0000d0 0d f4 a0 3d a6 7b e8 bd 19 be 81 3d 07 d3 d0 bd
       0.07859049 -0.11351709 0.063350864 -0.101965
0000e0 2d 77 76 bd 88 db 3a bd 55 b7 dc 3d 47 35 a9 3d
       -0.06017225 -0.045619518 0.10777155 0.08262115
0000f0 9d 71 8c bd e5 e1 ae 3d 90 37 a8 bd 20 fa 16 bc
       -0.068576075 0.0853918 -0.08213723 -0.009214908

encoder.nnet.nnet.3.fc1.weight f4 [64, 64]
000000 6a a7 d5 bd 9c 5e ff 3d 7a 83 70 3b 12 f0 9a be
       -0.10432322 0.12469217 0.003669946 -0.30261284
000010 72 05 30 be bf 8d ba 3c c5 2b 06 3e 30 e9 99 3d
       -0.17189577 0.022772668 0.13102634 0.0751518
000020 dc 4b 85 39 74 f4 db bd 2c 1c 3d bd b7 7e 06 bf
       0.00025424256 -0.10739985 -0.046169445 -0.525371
000030 1a a8 9e 3d 37 0c 5f 3c 17 6c 0b be 47 08 a5 bd
       0.077469066 0.013613752 -0.13615452 -0.080582194
000040 d3 b1 23 bd 4e db 51 be a6 53 b7 bd 82 d2 de 3e
       -0.03996451 -0.20493814 -0.089515015 0.4351998
000050 9b b9 99 be 33 dd 30 3d 00 d9 d0 3d 99 4f c2 3d
       -0.30024418 0.043179702 0.101976395 0.09487838
000060 53 07 a1 bd cb 2b 97 bd d3 bb 47 be 6d 7e 7c bd
       -0.07862725 -0.073814 -0.19505243 -0.061644007
000070 0b ca 5b be ff 83 a3 3d 2b df b4 bd c1 3d 57 bd
       -0.21463792 0.07984161 -0.088316284 -0.052549127
000080 37 12 38 3c 34 04 6b be 3b ce 16 be 26 62 63 bd
       0.0112348115 -0.22950822 -0.14727108 -0.055513524
000090 eb c1 c5 bd 09 13 3c be 0a 26 d5 be b5 27 43 3c
       -0.096561275 -0.18366636 -0.41630584 0.011911322
0000a0 19 a2 76 be 7a b2 37 bb f0 b1 77 be 99 ca 9c bb
       -0.24085273 -0.0028029964 -0.24188972 -0.0047848937
0000b0 6c e9 d7 3d 7c c6 b2 bd a4 35 c3 be f1 a7 1b bd
       0.105425686 -0.08729264 -0.38126862 -0.03800196
0000c0 6d 11 de bd 2a 80 b0 3e b2 57 1a be b8 d3 cd bd
       -0.108431675 0.3447278 -0.15072516 -0.10050148
0000d0 c7 60 62 be 73 11 c7 be 9a fc 7e 3d cb 9a 6f be
       -0.2210723 -0.388805 0.06225262 -0.23398893
0000e0 d0 78 8b be 7c 58 35 bd 11 0b 34 3d 04 67 37 be
       -0.2724061 -0.04427384 0.043955866 -0.17910391
0000f0 a7 12 18 be a8 40 b7 bc 76 6f 57 3d 03 27 a0 bd
       -0.14850865 -0.022369698 0.05259653 -0.07819941
000100 2e da 53 bd 05 cb 7c 3c 47 d9 cc bc 22 22 07 3e
       -0.051721744 0.015429263 -0.02500595 0.13196614
000110 5b 56 48 bc a1 87 f9 3d d5 30 e3 3c ac 0f e7 3d
       -0.01222762 0.12184072 0.027733246 0.11282286
000120 e5 87 ad 3d 01 5d d9 bd d6 e2 7b bd f7 f1 fa bd
       0.084731854 -0.10613442 -0.061495624 -0.122531824
000130 8f f2 69 be e3 0c 8e 3c 7e bc a0 bd 1d 16 14 be
       -0.22846435 0.01734013 -0.07848452 -0.1446156
000140 38 b3 0c 3e b4 a8 dd bd 11 a6 25 bd 34 24 46 bc
       0.13740242 -0.10823193 -0.040441576 -0.012093592
000150 95 ae 23 bd 96 15 83 3e 00 c7 a4 3d e4 e3 96 3c
       -0.039961416 0.25602406 0.08045769 0.018419214
000160 8f d0 eb 3b a8 2f 97 bd 61 8d 73 bd 6d 6a 90 3c
       0.007196493 -0.073821366 -0.059461 0.017628873
000170 ac 5a ef 3d ba 72 c3 bd 74 91 be bd 09 a3 bd bb
       0.11687216 -0.09543367 -0.09305087 -0.0057872576
000180 c2 fe 84 bd dd 94 1c 3a 1e 65 fa 3d a8 74 cf bc
       -0.06493904 0.000597311 0.12226318 -0.02532418
000190 8b f8 e2 bc 41 61 95 3e 00 30 94 3d 5c 0f 11 3f
       -0.027706405 0.2917576 0.07235718 0.5666406
0001a0 cf ed 96 3d 76 4c c2 bc 99 d1 1b bd 0b cd eb bd
       0.07369577 -0.0237181 -0.038041685 -0.11513718
0001b0 7c d9 e2 3d b0 fb b8 bd bc 1e 0a 3e 64 0d 85 3d
       0.11076638 -0.090323806 0.13488287 0.06496695
0001c0 cb 4f 6a bd 7e 7b a9 bc 1c 4f 05 3e 29 e5 f7 3a
       -0.057205003 -0.020688768 0.13018459 0.00189129
0001d0 18 19 0d 3e 5e f5 e5 3d 2e 08 a6 bd d2 75 0d be
       0.13779104 0.11228441 -0.08107029 -0.13814476
0001e0 d1 e9 2f 3e b1 ec ad bd c2 da 11 bc 67 c2 fe bd
       0.17179038 -0.08492411 -0.008902254 -0.12439423
0001f0 a7 f8 c8 3d f9 89 a2 bd a0 18 d5 bd 55 47 c0 bd
       0.09813052 -0.079364724 -0.104050875 -0.093886055
000200 7d ea d5 3d 11 7e f8 3d ff 7b 8a bd 5c c4 27 3e
       0.10445116 0.1213342 -0.06761932 0.16383499
000210 ee 41 da 3d b5 2c 88 3e 83 5c 34 bd 31 74 db 3d
       0.10657106 0.2659661 -0.04403354 0.10715521
000220 fb 58 47 3e 24 b1 b9 bd 7a cd 38 bc 73 31 52 be
       0.19467537 -0.0906699 -0.011279458 -0.20526676
000230 78 4b e8 bc b4 62 cf bd 76 ee 80 bd 1a bd af 3d
       -0.028356299 -0.10126248 -0.06295483 0.0858099
000240 b0 4d 1d 3e e3 65 d8 3c 7e b0 a8 bd a8 17 92 bd
       0.15361667 0.02641577 -0.08236788 -0.07133418
000250 50 12 89 be a3 9a 16 be 9b 0f d9 3d d7 1b ea 3d
       -0.26771784 -0.14707427 0.1059868 0.11431091
000260 b5 20 00 bd 98 5d 19 3d ed 40 e6 bd 0a 1f ef bc
       -0.03128119 0.037442774 -0.11242852 -0.029189605
000270 26 65 96 3d 20 47 16 3e be 04 8b be 85 a7 ec bd
       0.07343511 0.1467557 -0.27152056 -0.11555389
000280 c3 d2 3c be b2 80 06 be 82 d9 d3 3d ca 44 c4 bd
       -0.18439774 -0.13135031 0.10344221 -0.09583433
000290 10 a6 9f bd 7f ef 34 3b 4e be a0 3d 50 29 af 3e
       -0.07795346 0.002760857 0.07848798 0.34211206
0002a0 99 dc 19 bd 6f 90 42 be c4 1d bb bd 75 dd 04 3e
       -0.037563894 -0.1900041 -0.09136537 0.12975104
0002b0 8a c9 3a 3e 4a 72 97 3d 23 1f 37 3d f2 5a de bd
       0.18240944 0.07394846 0.04470743 -0.1085719
0002c0 76 b8 ce bd 2e 8b 9d bb 1d c4 25 be 2b 14 ac bb
       -0.10093777 -0.0048078513 -0.16188093 -0.0052514276
0002d0 b6 85 56 bd ca 63 a1 bd 51 e9 60 3d 76 55 46 be
       -0.05237361 -0.078803614 0.054910008 -0.19368538
0002e0 ca cf 98 bc cd 42 15 bd 5f d1 82 be 66 64 74 3b
       -0.018653769 -0.03644066 -0.25550362 0.0037291287
0002f0 c4 32 16 3d fd c1 75 be cc fe 8c 3b ba a7 cd 3d
       0.036669508 -0.23999782 0.004302835 0.10041757
000300 5b 38 29 3e 54 87 ee bd d4 9c 90 3d a7 aa 0a bd
       0.16525404 -0.116469055 0.070611626 -0.033854153
000310 98 0d e5 bd 9b a2 b7 bd 17 cb 1c be 19 a0 5d 3d
       -0.111842334 -0.089665614 -0.15311848 0.05410776
000320 d8 f7 6c 3e a4 50 80 bd cb 97 29 be c8 92 95 be
       0.2314142 -0.06265381 -0.1656181 -0.29213548
000330 5b 39 e9 bb d7 4a 40 3e b2 8a 2a be 3b 5a 90 bd
       -0.007117433 0.18778549 -0.1665447 -0.0704846
000340 e1 32 fa bd 71 3f 91 be b3 5f a1 bd f0 49 ad 3d
       -0.12216736 -0.28368714 -0.07879581 0.08461368
000350 7f 69 3d be a4 c3 57 bc e5 51 f2 bc 94 9d 0c 3e
       -0.18497275 -0.013169203 -0.029580066 0.13731986
000360 1a 96 a1 3d 40 db 46 be d7 87 2f be a7 2f a5 3c
       0.07889958 -0.19419575 -0.17141663 0.020164324
000370 21 2f a8 bd b6 d8 97 3c ad db 1e bd ee fe df 3b
       -0.08212114 0.018535953 -0.038783718 0.00683581
000380 62 31 84 3c 84 93 42 be aa 20 5b be 1a f0 80 be
       0.016136829 -0.19001585 -0.21399179 -0.25183183
000390 ab 36 c2 3d 76 fa ae be b0 61 03 be e4 95 81 bd
       0.09483083 -0.34175462 -0.12830234 -0.063274175
0003a0 b1 3b e3 bc 6c 25 73 bc cc 0a ba bd de 8e 9b 3c
       -0.027738424 -0.014840465 -0.090840906 0.018989023
0003b0 4e 32 62 bd 09 5e a3 3c c5 42 9d be c5 18 6a be
       -0.055223756 0.0199423 -0.30715004 -0.22861011
0003c0 53 26 1e be ef 8a ac 3e 7d b3 c0 3c 06 18 52 be
       -0.15444307 0.33699748 0.023523087 -0.20516977
0003d0 d4 b9 b8 bd 0b 53 42 be e5 d2 e3 bd 96 63 e3 bc
       -0.09019819 -0.18976991 -0.11124209 -0.027757447
0003e0 70 71 e7 3d 3c f5 3d bc 4e d4 bc 3d f4 b5 33 be
       0.11300933 -0.011594113 0.092201814 -0.17549878
0003f0 7d c1 22 be 16 0d 9d bc b6 e1 08 be 4f a5 5f 3d
       -0.15894122 -0.019171279 -0.13367352 0.05460101

encoder.nnet.nnet.3.fc1.bias f4 [64]
000000 68 12 ba 3d 4e 94 ad 3d a1 ec dd bd 68 35 6a 3d
       0.09085542 0.084755525 -0.10836149 0.05717984
000010 f7 64 ae 3d f7 34 9e 3c 66 ec 63 3d 07 1f d7 3d
       0.08515351 0.019312365 0.05564537 0.10503965
000020 fa a8 8d bc 25 ed b3 3d e5 c8 21 3b 01 ee 59 bd
       -0.017292488 0.08785466 0.0024686393 -0.053205494
000030 e0 65 2e 3d 95 5e 03 bd ad 42 d6 bc b8 de fa 3d
       0.042577624 -0.032072622 -0.02615484 0.122495115
000040 93 da 18 bd 83 77 54 3d 3f 2e da 3d 55 76 32 bd
       -0.037317824 0.051871788 0.10653352 -0.04356988
000050 3c 1c 9c bd dc 3f cb 3d 73 f4 9b 3d aa 98 09 be
       -0.07622573 0.099242896 0.07614984 -0.13437143
000060 d6 22 b0 bc f2 9c bd bd d7 c6 d2 3d 21 4c 3f 3d
       -0.021500986 -0.092584506 0.10291832 0.04670346
000070 25 76 a3 3d 11 99 d1 3c bc bd 89 bd 15 67 8b bc
       0.07981519 0.025585683 -0.06725642 -0.017016927
000080 f1 0a 8d bd c8 9b 4f 3c 85 cf 89 3d 25 81 01 3e
       -0.068868525 0.0126714185 0.06729034 0.12646921
000090 0c 14 ed 3d f9 ce f5 3d f3 11 77 3d e9 df 66 3d
       0.11576089 0.120023675 0.060319852 0.05636588
0000a0 b9 ea c8 bd b9 68 23 bd b1 d6 2a 3b 68 31 06 3e
       -0.09810395 -0.039894793 0.0026067907 0.13104784
0000b0 8c 1b b9 bd 95 16 bc 3d 75 23 f7 3d 73 b8 65 bc
       -0.09038457 0.09183995 0.1206731 -0.014021027
0000c0 0c 0a d4 bd eb 87 a0 3d e1 66 85 3d 21 7d 8e 3d
       -0.10353479 0.07838424 0.06513763 0.0695746
0000d0 91 0e 77 3c e0 7d 96 bd 17 46 43 3c 65 d9 89 3d
       0.0150791565 -0.073482275 0.011918566 0.06730918
0000e0 6a 85 9c bd 91 e6 e1 bd d2 79 3c 3c a6 64 9a 3d
       -0.07642634 -0.11030305 0.011503654 0.075387284
0000f0 0f 18 3e be f7 a3 20 3d 5a c0 08 be 2f a2 9a 3d
       -0.18563865 0.03921887 -0.13354626 0.07550465

encoder.nnet.nnet.3.fc2.weight f4 [64, 64]
000000 b0 a5 f5 bd 15 95 3c 3d 71 49 2b bd 13 cb ac bd
       -0.11994493 0.046040613 -0.041818086 -0.08437171
000010 ac 3e 0f 3e 46 69 b2 3d 2e be ee 3d 57 a7 30 bc
       0.13988751 0.087114856 0.11657368 -0.010782084
000020 ea 84 ad bd 98 9d e9 3b 5d 5f 4e bd 95 b8 1b 3d
       -0.08472617 0.0071293823 -0.050383914 0.038017828
000030 af 60 87 bd 70 45 cb bd fa ce 26 3b 58 2a af 3d
       -0.06610238 -0.099253535 0.0025452957 0.08552998
000040 68 79 e6 3c 9c c3 7e bd a5 2e 24 3e 82 a5 dc 3c
       0.028134063 -0.062198266 0.16033418 0.026934389
000050 08 76 06 be 3e f5 ce 3d d7 8e 01 be 81 67 ac 3d
       -0.13130963 0.1010537 -0.12652145 0.08418179
000060 6b ad 15 3e a0 51 18 be ac b6 4e bc db 1c ee bd
       0.14616935 -0.14874887 -0.012616795 -0.116265975
000070 10 1e a5 3c 0f 58 0f be 48 a8 80 bd df 37 23 be
       0.020155936 -0.13998435 -0.06282097 -0.15939282
000080 e5 5e 5e 3d 80 a5 dc 3d 35 a9 91 3d 13 d1 b3 bd
       0.054289717 0.10773754 0.07112352 -0.08780112
000090 e6 4c 6b bd 0f f7 6c 3d ea 58 5f 3d 08 c8 c0 bc
       -0.057446383 0.0578528 0.054528154 -0.023532882
0000a0 b2 d5 04 be 6b 0b c7 3c 5f d8 ce 3d e0 4c 76 bc
       -0.12972143 0.024297437 0.10099863 -0.015032977
0000b0 c5 01 01 3e bb 9a 45 be 83 c0 bf bc 78 45 de ba
       0.12598331 -0.19297306 -0.023407226 -0.0016957959
0000c0 84 af 27 3d b9 5e f2 bb 09 6a 09 be cb 90 db bd
       0.04093887 -0.0073965457 -0.13419355 -0.107209764
0000d0 14 bd ad 3d 5e 3b 23 bd ac 17 5f bd 4d de d3 bd
       0.084833294 -0.03985154 -0.054465935 -0.10345135
0000e0 6e b4 56 3d d1 b6 4f bc cc 17 24 3e 33 29 fd 3c
       0.052418165 -0.012677864 0.16024703 0.030903434
0000f0 df 6e 5c bd c9 59 4b bd 01 11 dc bd 86 62 1f be
       -0.053816672 -0.049646173 -0.10745431 -0.15564927
000100 e4 f2 97 bc 78 2a 12 be 7a e8 98 bd d4 d2 e4 bd
       -0.018548436 -0.14274013 -0.074662164 -0.11173025
000110 ce 4d 82 bc cf 0b 9c bd 3a 76 bc 3c de 09 14 3e
       -0.01590624 -0.0761944 0.023005594 0.14456889
000120 f6 4a 88 bd 37 f0 69 3d 87 81 2a bd 2f 13 02 3e
       -0.06654923 0.057113852 -0.041627433 0.1270263
000130 e8 49 13 bd c7 b4 fd bd bd 13 17 3d c9 5c e8 bc
       -0.035959154 -0.12387996 0.03688406 -0.028364556
000140 7d f2 0b 3d 20 27 8f 3c c6 07 17 bd 6c 3b 0f bd
       0.0341668 0.017474711 -0.036872648 -0.03496878
000150 fc 9d 81 3d 70 34 aa bd 20 81 6d 3c 0c ef fc 3d
       0.06328961 -0.08310783 0.014496118 0.12350282
000160 c9 a7 a0 3d 09 1d 00 bc f6 93 3a 3d 76 5e 97 bc
       0.078445025 -0.0078194225 0.045551263 -0.01847766
000170 27 9b 53 3d d6 f5 b4 bd 61 de 4c bd 97 d7 0d 3c
       0.051661637 -0.08835952 -0.050016765 0.008657358
000180 1d 66 5b bc 38 7d c7 bd 34 3a aa bd 2a fe 4d bd
       -0.013391045 -0.097406805 -0.083118826 -0.050291218
000190 0c 56 7b 3d ff 34 88 be e6 ea 22 3e 7f 7d 35 be
       0.061361358 -0.26602933 0.15909919 -0.17723654
0001a0 1e 5c 58 bd 6d 9e 52 bd d6 69 82 bd bd ca 06 3d
       -0.052822225 -0.051420618 -0.06367843 0.03290819
0001b0 ff cf e7 bd 61 56 39 3c 9e ec 20 be dd 09 bf 3b
       -0.11318969 0.011312098 -0.15715262 0.005830033
0001c0 aa 4a 7b 3d af 0c 37 3d 5a 0f c0 3d 50 5a 94 3c
       0.061350502 0.04468983 0.09377928 0.01810947
0001d0 5a a4 ee bd af ee e1 bd ab ec 7b 3d 1a b9 03 3e
       -0.11652441 -0.110318534 0.061505 0.1286358
0001e0 12 e4 43 bd 9f c3 f7 3c 8c 05 05 3e 91 01 46 be
       -0.047824927 0.030244647 0.12990397 -0.19336535
0001f0 27 1e 7e 3d c3 d3 bd 3d e6 bc bf bd d6 cd c1 bd
       0.062040474 0.09268906 -0.093622014 -0.09463088
000200 36 64 90 3d c1 d8 ab 3d da cf 99 3d 58 e1 7a bd
       0.07050364 0.08390952 0.07510348 -0.06125006
000210 59 57 3a 3d 78 e7 22 bd e1 df bc bd 65 be b1 3d
       0.045493457 -0.039771527 -0.09222389 0.08678893
000220 f2 77 a9 bd 95 4b be 3d c5 b7 88 3d 61 80 73 3d
       -0.08274831 0.0929176 0.06675676 0.059448604
000230 a8 96 ed 3c 53 9c c8 bd 7a 0f ae 3c 39 ef a2 bd
       0.029002503 -0.097954415 0.021247614 -0.07955784
000240 46 d5 a0 bc 56 d4 92 3d 91 b1 8c bd 6b 9e dd bd
       -0.019632947 0.07169406 -0.068698056 -0.108212315
000250 81 bd f6 3d cd bc 94 3c 7a b5 0a 3d 3d a3 ee bd
       0.12047864 0.018156433 0.033864476 -0.11652229
000260 f4 6e dc 3d bb 72 f3 3c e2 ee 53 3d c8 d2 02 3e
       0.1076335 0.029717794 0.05174149 0.12775719
000270 ad 65 78 3d 5f 6f fe bc 62 da a5 bb cc b5 f1 b9
       0.06064384 -0.031058965 -0.0050614337 -0.0004610255
000280 5e 12 85 38 ae 68 ef 3c 74 4a 8b 3d 03 3d 62 3d
       6.345355e-05 0.02922472 0.0680131 0.055233967
000290 80 8e ba 3d 50 67 b0 bd c9 2d 09 3e 56 64 be 3d
       0.09109211 -0.08613455 0.13396372 0.09296481
0002a0 8e 4a 5f 3d 2c 19 6b 3d 84 69 a2 bd 02 6a 14 bd
       0.05451446 0.057397053 -0.07930282 -0.03623391
0002b0 75 61 f6 3d c7 31 47 bd 38 15 9e 3d 9b 40 8e 3d
       0.12030307 -0.048631456 0.07718891 0.06945916
0002c0 0f 8a 82 bd 2f 94 6e 3d 33 64 51 3d c3 19 a0 3c
       -0.06373989 0.058246788 0.051120948 0.019543534
0002d0 f5 5e 0f 3d 66 b0 87 3c 27 91 96 bd 21 d3 20 bd
       0.035002667 0.016563606 -0.07351904 -0.03926385
0002e0 30 d1 88 bd ab ab bb bd 0a 96 2c 3e 46 2f fa 3d
       -0.06680524 -0.091636024 0.1685411 0.12216048
0002f0 d2 5d 84 bd 2b 3f 9d bd 66 a3 f8 bd f9 c7 81 3d
       -0.06463207 -0.07678064 -0.12140541 0.0633697
000300 ee 1f 04 3e 78 3d ec bd b0 ae 16 3e 2c 34 1a be
       0.12902805 -0.11535162 0.14715075 -0.15058964
000310 d6 bd 89 3e 2c 71 ff be 4d 23 a2 3d f0 cc 18 be
       0.26902646 -0.4989103 0.07916889 -0.14921927
000320 f4 9f 0c be c9 b9 60 bc 41 a1 a5 bd 86 47 bc 3e
       -0.13732892 -0.01371617 -0.08087397 0.36773318
000330 33 51 5b be ed b5 4e 3d 7b 2a 02 3e 82 a3 b4 bb
       -0.21417694 0.050466467 0.12711518 -0.0055126557
000340 e6 cd ac 3d fd 65 db 3b f6 5e d9 bd 1f bc e1 3d
       0.084377095 0.0066955076 -0.106138155 0.110222094
000350 02 3f 86 3d b9 8f 8d 3d 5b fd 69 be 4a 17 e0 3d
       0.065549865 0.069121785 -0.22850554 0.10941942
000360 68 5e b3 bd e9 31 83 bd 25 fc b5 3d 3d 8e 31 bc
       -0.08758241 -0.06406004 0.088859834 -0.010837135
000370 4a 7a 8a 3d ab 29 94 3d 48 50 79 be 60 6e 1f be
       0.06761606 0.0723451 -0.24347031 -0.15569448
000380 9a 41 40 bd da 59 ab 3e 75 d6 a8 3c e6 86 20 3e
       -0.046937563 0.3346699 0.020610074 0.1567646
000390 35 24 be 3d 09 35 23 be bf 0c ea be 27 54 dd bd
       0.0928425 -0.159382 -0.4571285 -0.108070664
0003a0 a7 77 af 3d f8 1a 3f 3e 1d 8e 65 3e 5b 9b a2 3d
       0.08567744 0.18662632 0.22417493 0.07939788
0003b0 91 65 b6 3c ba 63 20 3e 11 fd 5a 3c 98 fe 22 be
       0.022265228 0.15663043 0.013366 -0.15917432
0003c0 fe 87 88 3d ca 6f 48 3e 7c b7 46 bd e3 ca 14 be
       0.066665635 0.19573894 -0.048514828 -0.1453052
0003d0 e3 d8 7d be b8 c7 9f 3c fe fb 3e bd 0b 61 d2 3c
       -0.24789767 0.019504413 -0.046627037 0.02568104
0003e0 b3 3a 5d bd ce 5b a7 3e c0 df 20 be e1 2a 82 bc
       -0.054011058 0.3268723 -0.15710354 -0.015889587
0003f0 a5 a2 11 3d 54 ab 01 be 69 15 28 bd b8 a4 08 be
       0.0355555 -0.12663013 -0.041036043 -0.13344085

encoder.nnet.nnet.3.fc2.bias f4 [64]
000000 96 05 44 bd be 9d 4e 3d ca 23 3d bd cf 04 77 3d
       -0.04785689 0.050443403 -0.04617671 0.06030732
000010 d9 fc 8a 3d 95 c6 e4 3d 41 8a 93 3d 22 c5 8d 3d
       0.06786508 0.11170689 0.07204104 0.06922366
000020 c5 12 38 bc f9 00 09 be 34 fc 12 bc 1d 6c 9f 3d
       -0.011234944 -0.13379277 -0.008971263 0.07784293
000030 80 4c 05 3c bf 40 3e 3d 9f 32 0a 3e 93 d9 08 3e
       0.008135915 0.046448465 0.13495873 0.13364248
000040 7d 5b bb 3d 1e 14 a2 bd 68 5b 5d bd 3b 6f 2a bc
       0.091483094 -0.07913993 -0.05404225 -0.010402496
000050 8a e4 65 bd 34 5e 57 bb bd b0 af 3d 4b 31 b2 3d
       -0.056126155 -0.0032862546 0.08578632 0.08700808
000060 a8 4c 57 bd b8 cc 27 be 1f 92 19 3d eb a2 13 3d
       -0.05256334 -0.16386688 0.037492868 0.036044043
000070 cb f8 0c be 53 dc 10 3d 02 f6 f4 bd 76 64 81 bd
       -0.13766782 0.035366368 -0.11960985 -0.063179895
000080 9c dc d5 bd 42 33 d2 3d fe 64 77 bd 91 6b db 3d
       -0.104424685 0.10263683 -0.060399048 0.10713876
000090 d6 4d da 3c e0 1a 0e be 5c 0f 49 3d 63 6f 41 bd
       0.026648443 -0.1387744 0.049086913 -0.047225367
0000a0 ac c1 b5 3b ca ef 4b 3d 9b 34 41 bd 31 2b 44 3d
       0.005546769 0.049789228 -0.04716931 0.047892753
0000b0 81 d0 c3 3d d4 dc 59 bd 36 b3 34 bd 02 09 26 bc
       0.09561253 -0.053189114 -0.04411622 -0.010133984
0000c0 c9 b3 d4 3d 5c f2 03 3d ce 9f 82 3d 81 96 a0 3d
       0.10385854 0.032213554 0.063781366 0.07841206
0000d0 46 59 9f bd fe 95 a5 3d 3d 79 ea 3d 28 1d 86 be
       -0.077806994 0.08085249 0.114489056 -0.2619412
0000e0 59 3a 65 bd 59 3b 9d 3d 9c ff 65 3d 88 86 06 3e
       -0.055963848 0.07677335 0.05615197 0.13137257
0000f0 27 a6 a7 bd ff 22 6e be 88 39 c6 3c 75 68 18 bc
       -0.08185988 -0.23255537 0.024197355 -0.009302248
