data/MMAE_pumap_K17_hd128_seed1234_radamTrue_lr0.001_bs128.ckpt (torch, 692354 bytes, 28 tensors)

encoder.0.weight f4 [128, 17]
00000000: 61d8 c3be 99ee b9bd a37c 743e 46b6 ac3d
00000010: 66d3 02bd eb95 a43e 38f4 8bbe 6f07 fcbd
00000020: ce9f ed3b cd10 a43d 1b61 f4bd d03c ec3c
00000030: 611a 0e3e e9ee 8bbe 6cc4 dbbd 5098 ab3e
00000040: ead1 dabe 01e9 343e 467c 03be b1d4 0abe
00000050: 2a99 7bbe 668b 753d 16de 163d 602b df3e
00000060: c5ea 253e 716f 5f3e 269b f6bd ad37 d83d
00000070: 2ff5 d9be f3b9 99bd ed45 953d e3d8 01bf
00000080: c113 08be 2fea 3fbd 9725 acbe ecca aa3e
00000090: 7de2 af3e 75b3 1dbe 78c0 7b3e 538c b4be
000000a0: a61a 973c c3fc d5be 633b 673e cc0d 5bbe
000000b0: 3e28 c2bd a524 4fbe d764 89be 63d5 23be
000000c0: d51d ef3e 3ed4 c6bc c4c4 a23d 17a1 febd
000000d0: e09a 93bd 90ba 3dbe ff89 e43e 2bf9 393e
000000e0: 40bd 7e3e 5747 bdbd f558 b63e 2046 b8be
000000f0: ea79 7bbe b94c 883d 4dd2 a43e 4619 1b3c
00000100: e48d 64be b10a 01bf 9ff9 47bd 910d 193e
00000110: 95e9 673e f03b 573e 4ab3 67bf 34ca 4f3e
00000120: f0a2 553e 0095 c2be 29c5 c7bd 2ae3 273d
00000130: 940f c63e f438 aebe 11af eb3d d99f 843e
00000140: 7df5 98be c48b 423e 3178 48be 029f 073e
00000150: 9a59 85be f6b8 1c3e 2e88 c2be 0f7e 623d
00000160: 9ed3 23be 641d c13d ea41 5fbc b33f 3f3d
00000170: b77e 85be 7461 a3be 9826 bfbe b8f1 9dbe
00000180: 2eb8 8cbe f4b9 f6be e535 98be 39bf 043f
00000190: 3c35 133e 9d40 43be afe1 9abe a278 f2bc
000001a0: 3d8a 573e 1d47 f33b 07e7 7dbe 1953 3cbd
000001b0: 827c 6c3d a5aa c93c 163a 69be 088e fcbc
000001c0: 5f8b 99be 0a30 10be 9133 153e bdc9 513c
000001d0: 072f 243e a69c 803c 0074 b13d 3774 d03d
000001e0: 3b86 b2bc 3fd2 fdbd eefd 47bd 03b7 5bbe
000001f0: e7a0 cf3e ca4a 733c aec3 f7bd e35f 043f
00000200: 6d0e 003f cff0 1c3d 217f 0fbe a45d 5a3d
00000210: 9729 463e c524 b5bd aaff 0bbe 299d 963e
00000220: 786a 203f c513 703e d411 033e 3237 993b
00000230: 65df 4a3e 67e6 76be 9e68 393e 2976 60be
00000240: 395d 3c3e 170c 5b3d e776 173e 463b 8e3d
00000250: 6e54 0f3e da41 14be 59b5 9dbe 23fd c6be
00000260: fbf9 abbe ac42 ef3e 3019 0dbd 1ef1 4cbc
00000270: 1bcc eabe eb9d 0c3f 075e 84be 51a9 66be
00000280: d7bf ab3e 8c28 033d 8709 633d 9a99 873d
00000290: 1b75 09be 2b24 a33e caf3 f63e 0281 a43e
000002a0: c7ac 9dbd 502b ee3e 67e0 0fbf 4cbf 4d3d
000002b0: beba babe 9b9c af3e 819c c3bd eb42 5f3e
000002c0: 8a0c 30bd 5af0 a13e d558 7b3d 6e3b 6bbe
000002d0: bd82 f2bd 1cf7 153e 0030 503e b241 d3bc
000002e0: 0071 52bd 466f cebe fec9 96be 5e9c b03e
000002f0: 5cea c5be 7be7 9a3e e479 bfbc deb0 bb3d
00000300: c1a2 0abd d390 213e 889f 41be 300f 1b3e
00000310: 5ebc 2abe b153 8fbe 379d 713e 65f1 513c
00000320: cd41 143e 72e4 8ebe 5955 bebe f1bc 403e
00000330: c433 6ebe dcb9 77bc e247 22be 725e 3fbe
00000340: c05d adbe 73ab 91bd a2b0 03bf 0af5 673e
00000350: c89e f1bd bf3b 933e b0c3 983c 67ab e23e
00000360: 4989 c6bd 6dcf 8cbe 8287 253e 7ae4 4d3b
00000370: 0b6a 013e 7b37 f03d 2ac5 8ebe b292 35be
00000380: 2cc4 823e 14e6 38be 0ada 353e e7c4 083e
00000390: 7b99 8c3e 2c51 893d b18a 013e 3027 60be
000003a0: 7810 4b3e 8a24 af3e 4164 95be de60 943d
000003b0: 4fde f6b8 17d6 42be c695 703e ebdb e7bd
000003c0: f57c febe 0a30 233e 2a17 81bc 0314 a13e
000003d0: 11a7 0dbe ae21 db3e 315c 0ebe 29c0 663e
000003e0: 41a5 6e3d 8835 3f3e 5a12 37bc 3d04 31be
000003f0: a3c9 93be 5f40 f2bd 1c7b 5a3e 34d6 59bd
-0.38251022 -0.09078712 0.2387567 0.084332034 -0.031939887 0.32145628 -0.27334762 -0.12306105
0.007251716 0.08011017 -0.11932584 0.028837591 0.1387725 -0.2733071 -0.10730824 0.33514643
-0.42738277 0.17667009 -0.12840375 -0.13557698 -0.24570146 0.059947394 0.03683289 0.4358778
0.16202839 0.21819855 -0.12041311 0.10557494 -0.42569873 -0.0750617 0.07288728 -0.5072157
-0.13288786 -0.046854194 -0.3362243 0.33357942 0.34352484 -0.15400489 0.2458514 -0.3526331
0.018445324 -0.41794404 0.22581248 -0.21391982 -0.09480332 -0.20228823 -0.26834747 -0.1599937
0.46702448 -0.024271127 0.07947686 -0.12433069 -0.072072744 -0.18528199 0.44636533 0.18161456
0.2487688 -0.092421226 0.35614744 -0.35991 -0.24558225 0.06655259 0.32191697 0.009466475
-0.22319752 -0.5040694 -0.04882204 0.14946581 0.22647698 0.21018958 -0.9050795 0.20291978
0.20862937 -0.38004303 -0.09754402 0.040988125 0.3868376 -0.34027827 0.11508001 0.25903204
-0.29874793 0.18998629 -0.195771 0.1324425 -0.26044923 0.15304932 -0.37994522 0.055296
-0.15998694 0.09429434 -0.013626555 0.046691608 -0.26073238 -0.31910288 -0.37334132 -0.3084848
-0.27484268 -0.48188746 -0.29728618 0.5185428 0.14375776 -0.19067617 -0.30250308 -0.029598538
0.21048827 0.007424249 -0.24795161 -0.045977686 0.057735927 0.024617502 -0.22776064 -0.030829445
-0.29989144 -0.14080825 0.14570452 0.012804446 0.16033565 0.015699696 0.08664703 0.10178416
-0.021792522 -0.12393617 -0.04882615 -0.21456532 0.40552446 0.014849374 -0.1209787 0.5170881
0.5002201 0.03831559 -0.1401334 0.05331196 0.19351803 -0.08844904 -0.13671747 0.2941678
0.6266246 0.23445041 0.1279977 0.0046757692 0.19811781 -0.24111329 0.18106315 -0.21920075
0.18394937 0.053478327 0.14791451 0.06944899 0.13997051 -0.14478245 -0.3080242 -0.38865003
-0.33589157 0.46730554 -0.03444785 -0.012508659 -0.45858845 0.54928464 -0.25852987 -0.22525527
0.335448 0.03202109 0.055429008 0.06621094 -0.13423578 0.3186353 0.4823287 0.32129675
-0.0769897 0.4651742 -0.56201786 0.050231263 -0.36470598 0.34299168 -0.09551335 0.21802871
-0.04298071 0.31628686 0.061364014 -0.2297189 -0.118413426 0.14645046 0.2033081 -0.025788162
-0.051377296 -0.4031927 -0.29450983 0.344943 -0.38655365 0.3025473 -0.023373552 0.09164594
-0.03384662 0.15777902 -0.18908513 0.15142512 -0.16673419 -0.2799354 0.23595129 0.012813901
0.14478226 -0.27908665 -0.3717449 0.18822075 -0.23261935 -0.015119996 -0.15847734 -0.18688372
-0.33860588 -0.071127795 -0.51441395 0.22652069 -0.11797863 0.2875652 0.018647999 0.44271395
-0.09694154 -0.27502003 0.16164973 0.00314167 0.12638108 0.11729332 -0.278848 -0.17731741
0.25540292 -0.18056518 0.17758957 0.13356362 0.27460846 0.067049354 0.12650563 -0.21889949
0.19830501 0.34207565 -0.2917805 0.072450384 -0.00011771602 -0.19026981 0.23494634 -0.11321243
-0.4970471 0.15936294 -0.015758116 0.3146058 -0.13833262 0.42799133 -0.13902356 0.22534241
0.058263067 0.18672764 -0.011173809 -0.17286773 -0.28864774 -0.11828684 0.21336025 -0.053182796

encoder.0.bias f4 [128]
00000000: c24b 39bd 7696 43bd 5e73 16be e610 eebd
00000010: 2eb9 fdbd d7d1 06be 6f8e 15bd 1c2b bc3d
00000020: b528 c53d 8dae 8c3d f968 92bd 3545 efbd
00000030: d16f 2dbe 8f44 9f3d 4357 283e facd 993e
00000040: fb56 2d3e e8d9 5bbd ba26 31be 1436 943e
00000050: cd41 5a3e d7ac 1d3e 9d72 d7bd dee9 12be
00000060: fd60 85bd 4793 3cbe 036e 833d 1109 ac3d
00000070: 6575 3b3e 67ad 78be e4f3 40be a9ff ba3e
00000080: e535 9dbe 3453 923e 746a b43d ca21 8d3e
00000090: aae6 a63e 5917 93be f4f4 9d3e 6a88 b43d
000000a0: bbba 253d 6030 a63d e006 623e 4789 e1bd
000000b0: 3690 74be 006f 823e 64dc 0dbd 33c8 733d
000000c0: c574 aebb d4c2 51bd 4884 7abe 4bc0 663e
000000d0: abe7 29be 6bef 433e 423b 99bc 41bd 4bbe
000000e0: 726e cfbd eed3 47be e4f8 183e 5d8d cd3c
000000f0: 9305 773e 3a16 273e 9226 913e 2c7f ba3c
00000100: 1d85 acbe 77b0 da3d d941 1ebe 2779 31be
00000110: 6721 9d3d b216 c0be dc3b 123e 5894 d8bc
00000120: 87cf 6c3d 9aa3 23be 1797 fbba 25c4 013e
00000130: fe08 a3bc 1264 36be d1c1 043d fd3d eb3a
00000140: 4554 bb3d 7b02 e43d 129d 3abe cb0b e5bd
00000150: 1ce5 2a3b 49d4 91bd c073 893e 4150 35be
00000160: 637c a83d 42d7 cdbd b361 9f3e 24e1 3ebe
00000170: 0782 7d3e f959 a3bd f21d 693d 18c1 a6bd
00000180: d448 b1be 6dd3 9dbd 7a63 253e 83f7 973e
00000190: 8ac0 303d d47b aebd 2160 5dbd 0bef b63e
000001a0: 7253 4abb 8862 973e da01 f1bd ee81 813c
000001b0: f56e 973c 1fba b0be 66c3 da3d fdd3 4f3e
000001c0: 832a b7bd a68f 28be c02a 63bb ed86 8d3d
000001d0: e037 9cbd 3bd6 1f3e 9762 8bbe 6472 76be
000001e0: 9caf f1bd dfc3 0cbe cff4 043e da48 883e
000001f0: 77cd 85bd b730 dcbc 43d2 b8bd c932 9dbe
-0.045238264 -0.047750913 -0.14692447 -0.11624317 -0.12388836 -0.13165985 -0.03651279 0.0918791
0.09626905 0.068692304 -0.07148928 -0.11683122 -0.16937186 0.077767484 0.16439538 0.3003996
0.16927712 -0.05367461 -0.1729993 0.28947508 0.21314164 0.15397964 -0.105199076 -0.14347026
-0.0651264 -0.18415557 0.064174674 0.08400167 0.18306501 -0.24284898 -0.18843037 0.36523178
-0.3070518 0.28579104 0.08809367 0.27564842 0.32597858 -0.2872875 0.30850947 0.088150814
0.040461283 0.081146955 0.22072935 -0.11012512 -0.23883137 0.2547531 -0.03463401 0.059517097
-0.0053239786 -0.051211193 -0.24464524 0.22534291 -0.1659228 0.191343 -0.018705014 -0.19896413
-0.10128488 -0.19514439 0.14938694 0.025091821 0.2412322 0.16317073 0.2834974 0.022765718
-0.33695307 0.10678189 -0.15454806 -0.17331372 0.076723866 -0.37517315 0.14280647 -0.026437923
0.0578151 -0.15980378 -0.0019194809 0.1267248 -0.019901749 -0.17811611 0.0324114 0.0017947551
0.091469325 0.111332856 -0.1822398 -0.1118389 0.0026076501 -0.07120568 0.26846123 -0.17706396
0.0822685 -0.10050823 0.31129226 -0.18640572 0.24756633 -0.07976145 0.056913324 -0.081422985
-0.34625876 -0.07706342 0.16151229 0.29681024 0.04315237 -0.08519712 -0.054046754 0.3572925
-0.0030872491 0.2956736 -0.11767931 0.015809026 0.018485526 -0.34517 0.106818005 0.20295711
-0.08943655 -0.16461048 -0.0034662932 0.06910501 -0.07627845 0.15609066 -0.27223656 -0.24067074
-0.11801073 -0.13746594 0.12984012 0.2661808 -0.0653333 -0.026878698 -0.09024479 -0.30702808

encoder.2.fc1.weight f4 [128, 128]
00000000: 9547 243a dd5a 43be 07e4 50bd bd18 673e
00000010: feaa 7f3e 5712 46be 9578 20be a0a9 cdbc
00000020: 22cc 943c 19c1 a7bd 60d7 3fbd 443b 24bd
00000030: 0982 97be c20d e93c 2e55 90bd 80e9 ce3e
00000040: 9986 ebbd 9c03 263d 6eeb c4bd ae97 adbe
00000050: aa0e 1c3d b7b3 7dbd f738 073d e328 873d
00000060: f856 933e 1d7c 0cbe b3ce 133e 3120 c03d
00000070: f66e c2be 092c 663e d9e4 e7be 8d41 88bd
00000080: 756c aabd 593c 463c f930 65bd 4edc 1abd
00000090: 2e35 29bc 796f 35bc 3a44 04bc 9951 0abe
000000a0: 1090 95be 7242 86be 7899 823d ccce 13be
000000b0: a1e0 06bc a085 7bbe c437 853d 3a86 753c
000000c0: a29f 41be 11e8 013e d88c 49bd 942b 25be
000000d0: f7bf b7bd f6a3 c83c 2eb0 ee3c b783 0f3d
000000e0: e84a a5bd 8156 a83e 05e5 78bd 1b74 49be
000000f0: 7a4e 6d3e 71b9 c4bd 2d15 0f3e 788d 1bbd
00000100: 0a34 16be 93cd 42bd 04c4 5a3b a6d0 87bd
00000110: 6884 33be c04c 45be 6e16 353e 2cb3 fb3d
00000120: c8f7 cbbb ebc0 febd d670 a0be af2d 493e
00000130: a0a1 033c f9af 95be 75b5 3abd d7dc 0f3e
00000140: ba8c dbbd e1bc 5abe b79c 68be 8049 573d
00000150: cef2 bf3c 2f99 da3b 60cc 533e 81f1 dcbd
00000160: 606e 873d 72fd d6be 45ad cabe 4dbe 433d
00000170: 95fa 223d 8eee 5b3d 2079 bbbd 86f7 6cbd
00000180: 9113 f23b b808 95bd b8af 453d 65a8 de3d
00000190: 7ffc 9cbe f6d3 8cbd 66cf b13d a334 a93d
000001a0: 6f81 91be 76ad abbe df2d f33d e185 d337
000001b0: c2db cf3d 65f5 ba3d 6050 81bd d722 4c3d
000001c0: bfd1 10bd 5601 fb3d 26a3 6cbb 3123 62be
000001d0: db84 b6be a088 38bc 725d c53d bc66 17be
000001e0: fe90 06bf 8d3d 973d f365 143e 509f a83d
000001f0: 7021 603d 17ae 26bd 1906 3c3d 0786 f3bd
00000200: 4a3a 3f3b 9aca cebd 05af 743e 9735 4abe
00000210: 7588 c13d a6fb bfbd d33b 1bbd 69a1 533d
00000220: 430c 04be 3645 043e 34cd 833e bb3c 8bbd
00000230: 6a9f 0c3d 20af 97bc fb05 adbd d545 64bd
00000240: b6ca 013d 3b6d 063e bf46 df3b 7d20 94bc
00000250: 8d8b d33d 3b33 273e 779f b6bd bb0b 773d
00000260: c145 0cbe af07 323d 8cf5 8c3d 4da9 813e
00000270: a551 f7bb 1cde 3abe 2f8e 9c3e 2c54 fabc
00000280: dfc3 973e e493 32be 3642 1c3e 15e5 d83b
00000290: 542c d6bc 1f8d 2cbe 3556 8fbe 73c7 1abe
000002a0: 8c85 c23c 2a41 b9be 08b8 773d e13a b13d
000002b0: 1535 023e 0289 873c 64df cbbd a9b7 263d
000002c0: 7408 3b3e edde f3bd f06d b5bd 209e 0ebe
000002d0: ac80 583c 99fe 663b 21db 6b3c 39ca 9dbe
000002e0: 38f2 0bbe a673 183e ab0b c8bd b70a a63c
000002f0: bfc9 dd3d ea13 a5bd 4224 ce3d c72c fabd
00000300: 0112 383e 28e9 f53d 409b 123d c172 963e
00000310: 79c4 6bbe 182d 293d e4e6 cbbd f6ed d73d
00000320: 82b7 52be a49a 32be d4ff a1bd 7b47 3ebd
00000330: beaf 6fbd 32ce 983e 36ee 0fbe 18c6 07bd
00000340: c5b7 a93c d6d1 c3bd 3fce 89bd 38a1 1b3e
00000350: 3a71 a6bd 4315 5c3e 0079 80be 9638 f53d
00000360: 5459 54be cd2f 03be 0493 fcbd 3eed 903c
00000370: 277e 3c3e 2924 12bd f34e e6bd 77e2 053d
00000380: c9e7 4fbd 0a7e ad3e ae5f fabd df38 98bd
00000390: 5732 f03d 3f63 5f3e 5493 de3d 787b b03d
000003a0: 20c7 ca3d f20f d03e d096 343e 4768 243d
000003b0: b456 28be 213b 973c 382e f03d c6fd 12bd
000003c0: c93d f73c 8054 813d 6bd9 b9bb 23bc e0bd
000003d0: e64e 8fbe 4127 abbe 0280 7d3d c53d 023e
000003e0: 270d 1bbe be20 3c3e c39e d0bd a842 643e
000003f0: 9a57 1f3e e2d9 85be abb4 61be e1ff 533d
0.000626677 -0.1907763 -0.050998714 0.2256803 0.24967572 -0.19342934 -0.15670998 -0.025105298
0.018163744 -0.08191127 -0.046836257 -0.040095583 -0.29591396 0.028448943 -0.07047497 0.4041252
-0.11500282 0.040530786 -0.09615217 -0.33904785 0.038099922 -0.061938968 0.03301331 0.065995954
0.2877729 -0.1371922 0.14434318 0.0938114 -0.3797528 0.22477736 -0.45291784 -0.06653128
-0.08321468 0.012099349 -0.055954907 -0.037807755 -0.01032762 -0.01107394 -0.008072907 -0.1350769
-0.29211473 -0.2622257 0.06376928 -0.14434355 -0.008232267 -0.24562693 0.06504777 0.014985615
-0.18908551 0.12686183 -0.049206585 -0.16129905 -0.08972161 0.024492245 0.029136743 0.035037722
-0.08070928 0.32878497 -0.060765285 -0.19673197 0.23174468 -0.09605683 0.13972922 -0.037976712
-0.14668289 -0.047559332 0.0033380995 -0.066315934 -0.17530978 -0.19267559 0.17684337 0.12290034
-0.006224606 -0.1243914 -0.31336087 0.19646333 0.00803414 -0.2923582 -0.045583207 0.14049087
-0.10720201 -0.21361114 -0.22716032 0.05256033 0.023431208 0.006671093 0.20683432 -0.10788251
0.06612849 -0.41990238 -0.3958532 0.047788907 0.039789755 0.0536943 -0.09153962 -0.057853244
0.0073875864 -0.072770536 0.04826328 0.108719625 -0.3066139 -0.06876366 0.08682136 0.08261993
-0.28419062 -0.33530778 0.118739836 2.5215502e-05 0.10149337 0.091288365 -0.063141584 0.049837913
-0.03535628 0.12256114 -0.0036107986 -0.22083737 -0.35648236 -0.011263043 0.09636964 -0.14785284
-0.5256499 0.07384787 0.14492016 0.082335114 0.05471939 -0.04069337 0.045904253 -0.11890798
0.002917903 -0.10097237 0.2389489 -0.19747005 0.09449855 -0.0937417 -0.03789885 0.051667605
-0.12895302 0.12917027 0.25742495 -0.06798693 0.034331717 -0.018516123 -0.08448406 -0.05573066
0.03168746 0.13127606 0.0068138535 -0.018081898 0.103293516 0.16328137 -0.08917134 0.06031392
-0.13698484 0.04346436 0.06882772 0.2532448 -0.0075475746 -0.1824879 0.30577227 -0.030557714
0.29641625 -0.17439228 0.15259632 0.0066191056 -0.026144184 -0.16850708 -0.27995458 -0.15115146
0.02374532 -0.3618253 0.06047824 0.086538084 0.12715562 0.016544823 -0.09954718 0.040702496
0.18264943 -0.11907754 -0.088588595 -0.13927507 0.0132142715 0.0035246967 0.014395506 -0.30818346
-0.13666618 0.14887866 -0.097678505 0.020268781 0.10829496 -0.08060439 0.100655094 -0.12215572
0.17975618 0.12007362 0.03579259 0.29384425 -0.23024167 0.04130277 -0.09956148 0.10543434
-0.20577815 -0.17441803 -0.079101235 -0.046454888 -0.05851721 0.29844815 -0.14055714 -0.0331479
0.020717511 -0.095615074 -0.067287914 0.15198219 -0.08127065 0.21492486 -0.25092316 0.119736835
-0.20737201 -0.12811203 -0.123327285 0.01769125 0.18407498 -0.035679016 -0.11245527 0.032686677
-0.050758157 0.33885223 -0.12225281 -0.07432722 0.117283516 0.21815203 0.10867944 0.086173
0.09901261 0.40637165 0.17635655 0.04013851 -0.16439325 0.018460812 0.117275655 -0.03588655
0.030180829 0.06314945 -0.00567167 -0.10973384 -0.27989882 -0.33428386 0.061889656 0.12718876
-0.15141736 0.18371865 -0.101865314 0.22291052 0.15560761 -0.26142794 -0.22041576 0.051757697

encoder.2.fc1.bias f4 [128]
00000000: 614a a6bd 194e 8bbe 2a5c e03c 8375 093e
00000010: 0de4 9a3d 78fd 87bd d9a1 043e 5668 503e
00000020: 6ee4 bdbd 8626 36be bce0 04be 2836 ad3d
00000030: 0208 373c 8f8f 3ebc d40f 82bd 5332 e23c
00000040: e244 c7bc 8d37 72bd 67a4 43be b852 0bbe
00000050: 93be cd3d b32c 7e3d 7d00 603d 58fd 3dbe
00000060: bd62 debc 1ae9 a1bd 60c4 453d 472f 253d
00000070: 639f d0bd 91f3 993d 8193 0e3e 74f6 453e
00000080: 57d4 b5bd aff3 8abd 85f8 4cbd abcf 2abe
00000090: e9a8 febd e60d c23c fe6c e53c fe18 c53d
000000a0: 1f33 bdbd 8130 18be d9f3 d9bc 1ce3 04be
000000b0: c504 613d b5c9 cabc f365 12be fa55 07be
000000c0: d991 45be 0ce6 dcbc d3ea 4e3d ebf1 0fbd
000000d0: ef31 bd3c 6765 0ebe 5338 3b3d 5a14 c43d
000000e0: 0cb1 513d 9bc0 193d dd29 62be 3f79 82bd
000000f0: 9b12 f4bc 9156 c73d 4aa9 003e e2b6 b4bd
00000100: 1875 f53d 096d dc3c 9f2c 03bd c0a6 3b3d
00000110: bd71 01bd 10d9 54bd e76b d9bd 2e3d 273c
00000120: 91ef 00bd 8bf8 77bd 3e7a e7bc 03fb 22bb
00000130: 6b8b 923d 0174 29be 564a 753d 82af 10be
00000140: 0d2a 3a3d 3187 13be 80b4 cdbd c1b3 79be
00000150: 11d3 183d 79c5 a5bc 757f 99ba e907 113d
00000160: 770a b43d 1359 babc f472 793e e63e aa3c
00000170: b744 bcbb f376 a43d 2b65 6bbd 6b4f ae3d
00000180: 0818 383b 2b47 cc3d 4212 7fbd 00bc 243e
00000190: c777 bdbd 93a6 3d3c a326 18be 29d8 1f3b
000001a0: c65a 7d3d cfa4 94bd 417c d63c 8d60 df3d
000001b0: c075 a8bc 64a1 933d 8012 fabd 6db9 ee3d
000001c0: aaeb b3bd c240 adba f14c 81be 6da3 003e
000001d0: f799 99bc ee44 85bb bccf 89be 4d42 a7bd
000001e0: 35da d7bd 62c9 d33d 9db0 913d 9f97 10be
000001f0: 56ca 66bc cba1 4b3b 7f7d 1d3c 34df f8bc
-0.081196554 -0.2720802 0.027387697 0.13423733 0.075630285 -0.06640142 0.12952365 0.20352301
-0.09272085 -0.17788133 -0.12976354 0.08457595 0.011171343 -0.011630907 -0.06350675 0.027611887
-0.024324838 -0.05913501 -0.19105683 -0.13605773 0.10046115 0.062054347 0.054687966 -0.18553674
-0.027146691 -0.07905789 0.04828298 0.04032829 -0.101866506 0.0751716 0.13923456 0.19332296
-0.08878391 -0.0678476 -0.050041694 -0.16680782 -0.12434561 0.023688268 0.028006073 0.096239075
-0.09238266 -0.14862253 -0.026605533 -0.1297726 0.05493619 -0.024754385 -0.14296703 -0.13216391
-0.19293918 -0.026965164 0.050516915 -0.03514282 0.0230951 -0.1390587 0.04570801 0.09574194
0.051194236 0.0375372 -0.22086282 -0.06370782 -0.029794028 0.09733308 0.12564579 -0.08823945
0.119852245 0.02690746 -0.032024976 0.045813322 -0.03160261 -0.05196482 -0.10616284 0.0102074575
-0.03147847 -0.060539763 -0.028256532 -0.0024868853 0.07155498 -0.16548158 0.059885345 -0.14129451
0.04545026 -0.1440704 -0.10044193 -0.24384977 0.037310664 -0.020235764 -0.0011710959 0.035407934
0.087910585 -0.022747552 0.24360257 0.020781945 -0.005745496 0.080305 -0.05746953 0.085112415
0.0028090496 0.09974512 -0.06227327 0.16087341 -0.09251361 0.011575359 -0.14858489 0.0024390316
0.061854146 -0.07257997 0.026182296 0.109070875 -0.02056396 0.07208517 -0.1221056 0.11656461
-0.08785184 -0.0013218152 -0.25254014 0.12562342 -0.018750174 -0.004067055 -0.269163 -0.08166943
-0.105396666 0.10341145 0.071137644 -0.14120339 -0.014086327 0.0031071778 0.00961244 -0.030379869

encoder.2.fc2.weight f4 [128, 128]
00000000: 6328 8a3d dced 18bd a431 0dbe 5cfc 993c
00000010: 2667 d8bd da59 453e 241c e5be 6794 fc3d
00000020: 59d9 afbe 4270 6cbc 6dbe 35bd 09e8 1d3c
00000030: 2c0c 2ebe 64a3 a0bd 6f18 993c 11d8 50be
00000040: 3682 17be 7eaa 4ebd e04c 8cbe 9615 a4be
00000050: 20d4 443d ac2f c1bd 5095 40bd db1c ba3d
00000060: cba2 463e fe67 493d 9f32 323d 6d94 7c3d
00000070: 4d72 153e a2c1 82bd 987e 803d cc0d bebe
00000080: 9365 adbc d551 8a3d d523 293e 4738 0fbd
00000090: c7bc 3cbe 71d4 d8be 3390 0ebc 369b af3d
000000a0: 5417 61be c837 02be d63d 983d cf25 973d
000000b0: 6acf 6abe 3a7a 293d 2081 97bb e0ba 083d
000000c0: 841d 30be ce0f 92be 9c8d 483c 0916 17bd
000000d0: cd33 0cbe af2d 9cbc dd5b 933d ab66 6ebe
000000e0: 5c0c e7bd 2fcb 29bf 0557 09be fd65 6e3e
000000f0: e099 6c3c 1890 91bd c9ad 133e 0788 8bbc
00000100: da58 4cbe 8640 cb3e c4bc af3d 2a94 93be
00000110: 1fd6 babe a81d 0ebe 66f9 793e e89b 4bbd
00000120: 118b 8c3c 0b57 f23d 9220 883c 9d2d fcbd
00000130: 64b0 e33d db50 c0bd 8d22 42be d5f4 dd3d
00000140: 06f1 85be fe58 583e 66bd 0cbd 235c 0dbe
00000150: 9664 673e 8131 e43c 9c07 0fbd aa25 34be
00000160: d713 713e 31d3 abbe 1d46 e6bd 9c32 2f3c
00000170: 0913 74bd 9022 be3d 1a6b b63d 43a6 3c3e
00000180: 5f1f 26be 420d 33be 0f57 6f3c 1336 3c3d
00000190: 937e 9dbe b3b7 d03c e975 9ebc 3760 a6be
000001a0: 54e2 a4bb 4706 c23d d669 c4bd 4085 113e
000001b0: 14ec 84be cbfc 97bd 4a8a 0bbd c8f0 94be
000001c0: 4042 013e 1ea9 44bd 670a adbd a6a7 863e
000001d0: 88d5 fbbd 52ea d3bd e553 cfbd 64e7 85be
000001e0: 0266 4abe e3ee a43e 33ad c1bd ac46 43bc
000001f0: cbb7 ecbd 313d c0be e311 96bd dbc8 21be
00000200: 03e7 b6bd 56b0 4e3c cd61 a53d 50ba e73d
00000210: 90c4 2f3e 73bd da3d b08a c6be 618c 55be
00000220: 4fd2 b23d 5466 49be 9423 293d 257a 22be
00000230: cff0 a73e 10f9 73bd 4e35 2e3c e630 1fbf
00000240: d3c4 2b3e 46f2 37bd e5a0 c93d 50c4 72be
00000250: 5d1e 533e 30a8 2c3e 930f 8cbe a8f3 7fbd
00000260: be36 723d 5267 203e 69fb be3d 4792 36be
00000270: 1100 0bbe 97fe 13bd 9ca2 0bbb 458d 27bd
00000280: ee27 2f3e 3f2e bc3d bb64 e0bc 1bb3 4cbe
00000290: 7c78 6ebc e50e 043d 0e23 a7bb e2ec 5fbd
000002a0: 65ac fe3d 954a 4d3e ebcf 73bd 2834 053e
000002b0: 6338 423e 9f4e d53c 3006 593e 9060 60be
000002c0: 27bb b53d 1628 60be 37b1 93bc a3e5 1c3c
000002d0: 9437 9abd abf5 523e d8c4 e9be 1361 39b9
000002e0: 957d 2d3c 1cb8 323e 08e6 3dbd edda 18bd
000002f0: 308e 8d3d b35a 233e 83b9 35bd 49a7 ad3d
00000300: 717f 24be 3ab3 acbe 3ae9 13be 9154 b7bd
00000310: 296f 5cbc 232d 3ebe 88df 35be 32d1 1e3c
00000320: dcfa 8d3e f022 c4bd 3f40 30be 14c7 c43d
00000330: 5311 dbbb a0df dd3d 47cb 39be b883 9a3d
00000340: f4f1 38be 0c78 52be c7d1 28bd 7473 863d
00000350: 5ad5 07bd 7fa7 533e 6f3d 5dbe deec 0e3e
00000360: fcd9 ebbc 0a08 dcbd bf7d aa3e 8253 e6be
00000370: b015 a8bd bd2b fe3c 18e6 87bd 260e 08bf
00000380: 59e3 a0be 1ed6 69be 6228 a4bd 0fbe 02bf
00000390: 5d14 f33e 7f74 4bbd 623c 473e 98ad 0b3e
000003a0: 96e2 e03e 7542 3d3e f14e 7d3e abba c2bc
000003b0: 18a0 76bc 56b6 ccbc 2344 1cbe af1f 0a3e
000003c0: fc06 30bd e8b8 153e c05a 69be 67e9 31bf
000003d0: 672c d1bd dae6 45bd ee54 70be 4bd6 3d3d
000003e0: 515b 47bc 4ec7 babc 1263 c33d f143 e6be
000003f0: e92b 03be 2fb6 3e3e a282 21be 54d6 633e
0.067459844 -0.037336215 -0.13788468 0.018797092 -0.10566549 0.19272557 -0.44748032 0.12332993
-0.3434551 -0.014431061 -0.044371057 0.009637841 -0.1699683 -0.07843664 0.018688409 -0.20394923
-0.14795765 -0.050455563 -0.274024 -0.3204772 0.04805386 -0.09432921 -0.047017395 0.09087535
0.19398038 0.04917144 0.043505307 0.061664987 0.14594384 -0.06384589 0.06274146 -0.371199
-0.021166598 0.067538895 0.16517575 -0.03496578 -0.18431388 -0.4234958 -0.008701372 0.08574526
-0.21981555 -0.12716591 0.07433669 0.07380258 -0.22930685 0.04137633 -0.004623547 0.033381343
-0.1719876 -0.28527683 0.012240794 -0.03688625 -0.13691635 -0.019064752 0.07195256 -0.23281352
-0.11281654 -0.6632566 -0.13412102 0.23281093 0.0144409835 -0.07107562 0.14421763 -0.017032636
-0.19955769 0.39697665 0.08580926 -0.28823978 -0.36491486 -0.138785 0.24411544 -0.04970923
0.017156156 0.118330084 0.016617093 -0.123133875 0.11117628 -0.09390422 -0.18958493 0.10837714
-0.2616045 0.21127698 -0.034360312 -0.13804679 0.22596964 0.027855637 -0.034919366 -0.17592493
0.23542725 -0.33559564 -0.11243842 0.010693219 -0.059588466 0.09283936 0.08907147 0.18422799
-0.16222905 -0.17485526 0.014608159 0.045950007 -0.3076063 0.02547822 -0.019343333 -0.3249528
-0.005031863 0.094738536 -0.09590499 0.14210987 -0.25961363 -0.07421263 -0.03406743 -0.29089952
0.12622929 -0.048012845 -0.0844925 0.2629978 -0.12296587 -0.103474274 -0.101234235 -0.261531
-0.19765475 0.32213506 -0.09456863 -0.011918705 -0.11558493 -0.37546685 -0.0732763 -0.15799277
-0.08930781 0.012615284 0.08075295 0.11314833 0.17164826 0.10680666 -0.38777685 -0.20854332
0.087315194 -0.19667941 0.041293696 -0.15866907 0.3280091 -0.059563696 0.010632826 -0.6218399
0.16774301 -0.044908784 0.09845141 -0.237077 0.20617051 0.16861033 -0.27355632 -0.062488228
0.059134237 0.15664414 0.093252964 -0.17829238 -0.13574244 -0.036131468 -0.002130664 -0.04090621
0.17105076 0.09188508 -0.027391782 -0.19990198 -0.014555093 0.032240767 -0.0051006144 -0.05466927
0.124352254 0.20047982 -0.059524458 0.13008177 0.18966822 0.026038466 0.21193767 -0.21911836
0.08873587 -0.21890292 -0.018028839 0.009576234 -0.07530132 0.20601527 -0.45657992 -0.00017679138
0.010589023 0.17453045 -0.046361953 -0.03731816 0.06911886 0.15952568 -0.04436637 0.08479173
-0.1606424 -0.3373049 -0.14444438 -0.08951677 -0.013454237 -0.18571906 -0.17761052 0.009693431
0.27730453 -0.09576976 -0.17212008 0.09608284 -0.006685415 0.10833669 -0.1814395 0.075446546
-0.18061048 -0.20553607 -0.041215684 0.0656499 -0.033162452 0.20669363 -0.21605466 0.13957545
-0.028790466 -0.10743721 0.33299062 -0.44985586 -0.082072616 0.031026715 -0.06635684 -0.5314659
-0.31423452 -0.22835585 -0.08015515 -0.51071256 0.47476473 -0.049671646 0.19456628 0.1364044
0.4392287 0.18482383 0.24737145 -0.02377065 -0.015052818 -0.024989288 -0.15260367 0.13488649
-0.04297541 0.14621317 -0.22788525 -0.6949677 -0.10213547 -0.04831586 -0.23469898 0.046346944
-0.012167768 -0.022800114 0.095403805 -0.4497371 -0.12809719 0.18624185 -0.15772489 0.22249728

encoder.2.fc2.bias f4 [128]
00000000: 6d4d 523e ffb8 05be 8cd1 e3bc f4fd b03c
00000010: 381f ac3c afd6 01bd f1f5 9b3d c90b 19be
00000020: ff4b bbbd 54b7 f23c b3e2 123e 37b9 5f3d
00000030: 6436 183e 2699 6e3e 17e9 063d 5511 9dbd
00000040: 0cc3 603e e673 29bc dc67 7dbe f726 a3bd
00000050: 3328 113d 3327 a63d 5e7a 55be de34 4d3d
00000060: 8a64 a2bd b908 c73d bfc6 453e 245f 443d
00000070: 8863 8abd cd84 5dbe 396d 07be 4870 c0bb
00000080: 1db2 8abe 2987 d6be 8a9d 8d3d d587 f63c
00000090: 3847 c63d 8a89 093e 868b 003d bbd1 60bd
000000a0: 744e fd3d 7e6e 7a3d e5e2 8fbd 0d07 62bd
000000b0: 872d 99bd 52d5 6f3e 05d0 9f3d 471d 253c
000000c0: e39b e3bd 31ec f73d 8a97 2fbf 1b8a 103e
000000d0: 9c08 15bd ec3d 38bd 91c6 a33d f943 ca3d
000000e0: 79cc 9cbc a942 143d 8b5a a33c 2864 ddbd
000000f0: 7c3d 50be e619 b6bd cb62 61bc c544 90bd
00000100: e7b5 b9bd e5a4 2e3d a81e 353d b5c0 08bd
00000110: fb64 043e 3c97 d4bd 85fe 9dbc 4961 6e3d
00000120: ad89 b9bc c2cb 0bbf de35 85bb d2be 283d
00000130: 6155 fe3d d264 bd3d 36b2 f5bd 10e0 06bd
00000140: 9c13 9e3e bc4f d33d 8fb4 38be b024 f9bd
00000150: 12b2 953d c500 4abd 1cea 7bbd b211 8e3d
00000160: 2bac 9dbd a73c 053d 98c5 24bd b4d1 0a3e
00000170: f62b 863d ceaf 01be 0eec 183e 42c6 a93d
00000180: 38ae d63d 6d53 fdbd b90e 253e 42c6 673d
00000190: f0bb c9bd e6be 13bc 4117 1ebe e137 313d
000001a0: e46a d13d 8054 ae3b b552 32be d081 90bd
000001b0: f8b8 e73b 0027 31bf bff3 083d 8294 28be
000001c0: 3a64 e93d ccb9 49be ed09 37bd fd1d a33d
000001d0: 23b8 a8bc 8332 a23c cff1 7d3d f6e2 003d
000001e0: 92fb 02bd ca8d babe 16a1 eebd 33dc 3a3d
000001f0: 182f 13be 2a86 2e3e 95fe a83c 8c40 93be
0.20537348 -0.13058852 -0.02780988 0.02160547 0.02101098 -0.03169888 0.07615269 -0.14945902
-0.091453545 0.029628433 0.14344291 0.054619994 0.14864498 0.23300609 0.032937136 -0.076693214
0.21949404 -0.010342574 -0.2474665 -0.07966416 0.035438728 0.081129454 -0.2084746 0.050099246
-0.079293326 0.097184606 0.19314097 0.047942296 -0.06757265 -0.2163269 -0.13225259 -0.00587276
-0.27089015 -0.41899994 0.06914814 0.030094067 0.09681553 0.13431373 0.03138306 -0.054887515
0.12368479 0.06114053 -0.070256986 -0.055182505 -0.07479387 0.23421219 0.078033485 0.010077781
-0.111137174 0.12105597 -0.68590605 0.14115183 -0.036385164 -0.04498093 0.07996858 0.09876246
-0.019140469 0.036196385 0.019940635 -0.10810119 -0.20335954 -0.088916585 -0.013756464 -0.07044367
-0.09067898 0.042637724 0.04421869 -0.033386905 0.12929146 -0.10380408 -0.019286403 0.058198247
-0.022648657 -0.54607785 -0.0040652594 0.041197605 0.124186285 0.092477456 -0.11996882 -0.032928526
0.30874336 0.103179425 -0.18037628 -0.12165201 0.07309355 -0.04931714 -0.06150256 0.06936969
-0.07698854 0.032528546 -0.040227503 0.13556558 0.06551354 -0.1266472 0.14933798 0.08289768
0.10482448 -0.12369428 0.16118897 0.056585558 -0.09850299 -0.009017682 -0.15438558 0.04326618
0.10225466 0.005320132 -0.17414363 -0.0705601 0.0070716105 -0.69200134 0.03343558 -0.16462901
0.1139607 -0.19699782 -0.0446872 0.07964704 -0.020595616 0.019799476 0.061998185 0.031466447
-0.031978197 -0.364363 -0.116518185 0.045620155 -0.14373434 0.17043367 0.020629207 -0.28760183

encoder.3.fc1.weight f4 [128, 128]
00000000: 2d76 82be 5362 6b3c 788f 80bd d331 2abe
00000010: 1d3b 883e 63cd b2bd 0e43 583e e235 bfbb
00000020: 567a 2bbe 7fb7 6d3e 701c a2be 2ef7 d93d
00000030: 3fbe 9cbe c98c 57be c2e2 123e 74ea d2be
00000040: 3d93 01be 9b3d 70be e29f f93d 227f 5abe
00000050: 379d d3be bf9a 8439 e341 1a3e c05e 053e
00000060: b43a dd3d 06a7 16bf b18b 293e 208f 4b3e
00000070: 2e6d 0f3e fb7f 8ebd 5000 53bf 6f69 01bd
00000080: 0b0f cbbe 3a54 4bbd abe8 633e e84c e93c
00000090: 61d3 973c 74d1 a1be 4ec6 c7be 7e95 0c3c
000000a0: 5526 8a3d ca91 3ebe a963 a2bd 16a8 d53d
000000b0: 01bd 4d3d 42a8 9dbd 00be a1be 6c5e ce3d
000000c0: 8587 01be c241 adbd 2325 6a3e 042b 4f3e
000000d0: 041b 4cbd dabb 85be d744 a13d 8ed5 d8bc
000000e0: 9576 77bd 9437 2abe e887 583e db37 e83c
000000f0: ac78 163e ee95 8c3d 5655 703d 5405 92be
00000100: d2c5 5d3d 2458 10bd 0905 01be 0b9f 933e
00000110: 8e5c 303d efd6 d9be 66e2 c0be 12d0 14be
00000120: 5549 ee3c 23a3 dd3d fa48 653e 0a59 dfbd
00000130: 3595 ccbe 6c42 c1be 545d b5bd b1a5 8ebd
00000140: cb33 833d 64a6 4a3d 7c97 89be efe6 e1bd
00000150: 87f9 46bd 2ade 213e 2e3a b4be 63e5 d23d
00000160: fe67 3ebb 72f0 87be 37b2 b9bd fcd9 c3be
00000170: 4ea5 7a3e 741c 84be 718a cb3c 7ca5 b7bd
00000180: 927b 1c3e 57b5 c13d c9ae 08bf f24a 1bbc
00000190: 681b 0d3d d0cb 05be b334 0a3e 2ee1 47be
000001a0: 2c0b f93d c23e 18be c1e2 c63c 190e c5bd
000001b0: 95d2 55be 8c89 593e d383 edbd 8782 4d3d
000001c0: 4569 97be 9cbe 5b3d eabc 1cbc 60bd f03d
000001d0: 7abb 3cbe 7237 0fbf 8c51 943c f840 f7bc
000001e0: 69e0 f8bb 9502 13be 8c75 ccbd 9b17 223e
000001f0: 670f 21be 06ec 08bd 2b68 85be d996 f3bd
00000200: 1fe5 423d afee 54be ffb0 67bd fbc6 2f3e
00000210: d473 0ebe e2dd 9cbd e48e 91bd 3360 de3d
00000220: 1866 8bbe 5940 00be f3c7 483e 158a acbd
00000230: e463 e1be 5247 e13c 700d 50bd dceb 56bf
00000240: 2730 703d 5a67 96bd d8d9 e1be d24b 44bd
00000250: 8f88 11bd 037a 60be ee35 243e 1d65 723e
00000260: e213 47bd 49e4 9bbd bb65 bf3d 724f 09bd
00000270: 7629 f8bd 08cd febd 29c5 c93d 1ad5 13bd
00000280: 9e1c 383e 3a88 44bc 335b cfbe 42d4 03be
00000290: 71f5 573d 015f 83bd 1a24 0e3e 1645 8abc
000002a0: 2681 583e 2824 803c bb38 9b3d 66c2 343e
000002b0: 378d a03e 90fe 6cbe 6faa 1e3c ede3 32bc
000002c0: ad99 40be 8607 29bd 902e 15bf 00d1 2a3c
000002d0: ae95 083e 0b3b 0e3d c604 93be edf4 713e
000002e0: d95c 83be d05f dbbe 9665 413d 5c58 a53d
000002f0: 9e6f 473d 6e4d c03d abe2 173e f579 ffbd
00000300: 9927 2e3e 5f4c 1f3d f725 3d3d ef6e 4e3e
00000310: cb75 3bbe 8c5c e7bc 90da 6d3c c6f2 943d
00000320: aea0 e73d bc06 febd 74ab 5fbe edc1 7b3c
00000330: 49c8 efbc 129d 1bbd 3fc6 cb3d 64a3 563e
00000340: d2ae a8bd fe5a bcbe c72b 733e f994 10be
00000350: a0da 013e 5c22 e63d c6d9 513c d4b5 c63d
00000360: 82f7 023e 5069 adbe 8efd 5abe cdf8 973c
00000370: e497 72bd f6c0 51be a70a 0b3d 1969 a3bc
00000380: f744 a1bd d271 0d3d 6e0d 2e3e fe48 22be
00000390: f44b a3bd 1981 8d3e 10a3 0e3e 150f b4be
000003a0: 5522 11bd 8358 c5bc 8f03 afbe 2438 a8bc
000003b0: 7d51 0abc ac41 bfbe 6619 ad3d 84f5 bfbc
000003c0: 5ab9 993d 44e9 913c 6b7f 603c 03f9 423d
000003d0: 4154 77bb fbc3 3c3c c70f c83b 7410 46bd
000003e0: 42b7 b4be 4a7a 493e 3e21 893e d585 7dbe
000003f0: ee2b 1fbd 375d 97bd c633 433e d2d3 44be
-0.25480786 0.014366704 -0.062773645 -0.16620569 0.266076 -0.08730581 0.2111933 -0.0058352808
-0.16745886 0.2321453 -0.3166232 0.10642849 -0.30613896 -0.21049799 0.14344314 -0.411945
-0.12653823 -0.23461 0.12188698 -0.2133756 -0.41330883 0.00025292297 0.15064196 0.13024426
0.10802212 -0.5884861 0.16557194 0.19878817 0.14006492 -0.06958004 -0.8242235 -0.03159469
-0.39659914 -0.04964087 0.22256725 0.028479055 0.01853341 -0.31605113 -0.39018482 0.008580564
0.067455925 -0.18610302 -0.07929165 0.104324505 0.050229076 -0.07698108 -0.3159027 0.10076603
-0.12649353 -0.08459808 0.22865729 0.20231253 -0.04983045 -0.26119882 0.07874458 -0.026469018
-0.060415823 -0.16622764 0.21145594 0.028346946 0.1469447 0.06864534 0.058675133 -0.2851969
0.054143734 -0.035240307 -0.12599577 0.28832278 0.043057017 -0.42546794 -0.37672728 -0.14532498
0.029087702 0.108221315 0.2239112 -0.10905655 -0.39957586 -0.37745988 -0.088556916 -0.06965197
0.06406363 0.04947509 -0.26873386 -0.11030375 -0.04857781 0.15807405 -0.35200638 0.10297658
-0.0029053683 -0.26550633 -0.09067195 -0.38252246 0.24477121 -0.25802958 0.024846287 -0.089671105
0.15281513 0.09458416 -0.533917 -0.009478318 0.034449965 -0.1306603 0.13496666 -0.19519493
0.12160334 -0.1486769 0.024278047 -0.096218295 -0.20881112 0.21243876 -0.11597409 0.05017331
-0.29572502 0.053648576 -0.009566525 0.117548704 -0.18430892 -0.5594398 0.01810529 -0.030182347
-0.007595111 -0.14356454 -0.09983358 0.15829317 -0.15728532 -0.033428214 -0.26056036 -0.11894006
0.04758179 -0.20794176 -0.05656528 0.17165749 -0.13911372 -0.07659508 -0.07107332 0.10858192
-0.2722633 -0.12524547 0.19607525 -0.084247746 -0.44021523 0.027499828 -0.050794065 -0.8395364
0.05863967 -0.073439315 -0.44111514 -0.04792387 -0.035530623 -0.21921544 0.16036198 0.23671384
-0.048602946 -0.07611901 0.093455754 -0.03352303 -0.12117283 -0.1244145 0.098520584 -0.0360919
0.17979667 -0.01199537 -0.40499267 -0.12873939 0.052724306 -0.06414605 0.13880959 -0.016878646
0.21143016 0.01564224 0.0757918 0.17652282 0.31357738 -0.23143983 0.009684189 -0.0109186
-0.18808623 -0.04126694 -0.58274174 0.010425806 0.13338348 0.034724277 -0.2871458 0.23628588
-0.25656775 -0.42846537 0.04721602 0.08073494 0.04869043 0.093897685 0.1483256 -0.12474433
0.17007293 0.038891193 0.046178784 0.20159505 -0.18306653 -0.028242372 0.014517441 0.07272868
0.11309944 -0.12403628 -0.21842748 0.01536606 -0.029270308 -0.03799159 0.09949922 0.20960766
-0.08236469 -0.36788172 0.23747168 -0.14119329 0.12681055 0.11237022 0.012808269 0.0970265
0.12789729 -0.3386941 -0.21385786 0.018551255 -0.059226885 -0.20483765 0.033945706 -0.019947575
-0.07874482 0.034532376 0.1699731 -0.15848157 -0.07973471 0.27637556 0.13929391 -0.35167757
-0.035433132 -0.024090057 -0.34182402 -0.020534582 -0.00844228 -0.3735479 0.0845211 -0.0234325
0.07506056 0.017811425 0.013702254 0.047600757 -0.0037739428 0.011521335 0.0061053964 -0.048355535
-0.35296065 0.19675556 0.26783174 -0.24758084 -0.038860254 -0.07390826 0.19062719 -0.19221428

encoder.3.fc1.bias f4 [128]
00000000: ab94 d43c bb2b 903d b00b 713d a94a 1bbe
00000010: 611f ee3c c36c 543d 7f56 463e cf12 293c
00000020: 4682 893e ad54 9d3b 6a13 b0bc c552 643e
00000030: 0bcb 393e 08b0 ed3d 65d6 603d 998b cdbd
00000040: fcb8 3fbd aff3 5abe ebe2 7b3d 0aa1 123e
00000050: fca0 1f3e 6644 3bbe df03 823d 7fe1 593d
00000060: dfbf 113e cd8a 093e ea1a 46be 8852 c43d
00000070: c506 e1bd 44c6 77bd f8da 39bd 4119 0c3e
00000080: 30cb 093e 66c0 21be ac96 1c3d 8e32 583e
00000090: 4372 d4bc ffab 2fbd df5e 9abd 29dd 953d
000000a0: 44cf 393e 1301 e33c 9f3a 1bbd 0a0e 193e
000000b0: 9a97 2d3e a2ac db3c f6bf 73bf 9204 003e
000000c0: 881d e43c 06a8 1d3b b891 91bd 2b75 8f3d
000000d0: 03ec 9abb ce50 e63d 9e88 2c3e 5e52 8b3d
000000e0: 4c81 2bbd 4d65 053e 3c26 4d3d e8ab 18bd
000000f0: 076b f6bc a1c9 193e 881a 4d3e ba94 c8bb
00000100: 3819 c6bc 9049 353e 9f00 d7bd e6a4 f63d
00000110: bbd7 b7bd 10f9 6bbd 6275 07be 1a27 3e3d
00000120: d4e3 d2bd 0d43 12be a3b1 d43d ac42 64bd
00000130: 84b1 463e 3c20 1ebd db14 e4bd 0dcd 80bc
00000140: fc41 b93d 9fa0 0c3e 58fe b0bc 43d2 903d
00000150: e35d 303e 3ece 10be 71bf 02be 7ef3 223d
00000160: ed5e febb 4108 d33c 3989 ed3d 4342 293e
00000170: 8b31 74bd 15a8 9fbd 6043 60bd 1469 3fbe
00000180: ab8f f63c 95f2 37bc 08e0 913d f16c ef3d
00000190: 4e2d f43d b822 9abe 140f 91bc 833d 6ebd
000001a0: b23a 3e3e b8fd bc3d 84ef 4dbe 9dfb b63d
000001b0: e0b3 bebd 851f f83c 5249 98bd 29da 3c3e
000001c0: a4ef 70bc da93 b73d 787c 1b3b f401 693d
000001d0: 2c09 1dbd 6099 883b 8a0e 813c ebaa 993d
000001e0: 84c4 3bbe 160c 153e cbe9 2dbe 7e70 86bd
000001f0: 1c93 d43d 1eb4 2f3d f5d3 56be 4fc7 3bbd
0.025949797 0.07039591 0.058849037 -0.151652 0.029067697 0.051861536 0.19368933 0.010319426
0.26857203 0.004801354 -0.021493632 0.22297199 0.18143861 0.11605841 0.054891963 -0.10036392
-0.046807274 -0.2138202 0.061495703 0.14319244 0.15588754 -0.1828781 0.063483946 0.053193565
0.1423335 0.13431855 -0.19346204 0.09586054 -0.10987619 -0.060491815 -0.04537484 0.13681509
0.13456416 -0.1579605 0.03822963 0.21113035 -0.02593339 -0.042888638 -0.075376265 0.073175736
0.18145472 0.027710473 -0.037897702 0.14946762 0.16952363 0.026815716 -0.95214784 0.12501743
0.027846113 0.0024056449 -0.07107872 0.0700477 -0.004727842 0.11245881 0.1684899 0.0680282
-0.041871354 0.13026924 0.05008529 -0.037273318 -0.030080331 0.15018322 0.20029652 -0.006121245
-0.024181947 0.17703843 -0.10498165 0.12043171 -0.08976694 -0.05761057 -0.13228372 0.04642401
-0.10297361 -0.1428339 0.10385444 -0.055727646 0.19403654 -0.03860496 -0.1113679 -0.015722776
0.09045789 0.13733147 -0.021605656 0.07071354 0.17223315 -0.14141175 -0.12768342 0.039782993
-0.007762781 0.025760772 0.11598439 0.16529183 -0.05961756 -0.07795731 -0.054751754 -0.18692428
0.030097803 -0.01122727 0.07122809 0.11690701 0.11922704 -0.30104613 -0.017707385 -0.05816413
0.18577078 0.092280805 -0.20110899 0.0893471 -0.09311652 0.030288467 -0.0743586 0.18442596
-0.014705572 0.08963747 0.0023725312 0.05688663 -0.038338825 0.0041686743 0.015754003 0.07503303
-0.18336684 0.14555392 -0.16983716 -0.06564425 0.103796214 0.042896383 -0.20979293 -0.045844372

encoder.3.fc2.weight f4 [128, 128]
00000000: 396b 51bd 9551 a23e 23d0 433b 2ef9 73be
00000010: e280 343d 169f cdbd 5f65 63be 73a4 0a3e
00000020: 3736 053c c646 f0bd aa9a d3be 2942 7fbe
00000030: 5942 a3be 3c4a e7bd 4b83 453e 9136 f8bb
00000040: 412d 32bd 1e17 7c3d 2a88 9b3d f6f1 63be
00000050: 2efe 10bf fdf7 97bb 53e1 e13d 6088 a63d
00000060: 6ca1 283e cbdf 49be 4fa3 1f3e ffc1 543e
00000070: 7467 fabb 084c 563e 7943 3a3d 6fb5 08bf
00000080: 3ea0 b63b 6151 87be 9722 3a3c 1279 3abd
00000090: 94ef 8fbc 7624 10be 06ed 46be 2031 c8bd
000000a0: 431a 71bd 0eba 863e fb41 16bd d137 c33d
000000b0: efc1 74bd 564d 52be f618 cdbc c83e 593e
000000c0: 2206 053e a716 ccbd 54b8 c0bd 0aff 32bd
000000d0: 8c1a c03d 0e37 45be 428e 51be ef91 a93d
000000e0: 46e4 333e 9238 6d3e 9a70 81be 9484 c7be
000000f0: 3cea ab3c a4e6 92bd 338d 9ebd 5817 473e
00000100: e85a 59bd ce11 1abe 6163 a33b 397c 25be
00000110: f087 0e3e 8a22 b83d 65f4 ac3d 756e b13d
00000120: f68b e33c ff0b 12be 1453 2f3b e860 533d
00000130: ef0d bc3c f294 0cbf 5a9d 92be 7eb9 3cbe
00000140: 5d1d 8dbe 672d 8c3e e9f3 f13c 0083 643d
00000150: c642 ecbd 6c03 ae3d 10be 0a3e 15b6 31be
00000160: 88b9 6cbe f8f0 7c3d fc21 9fbc 8f4b 02be
00000170: 6d56 023c e2a4 343e f2b5 c0be 1375 ae3d
00000180: 8028 3bbf a664 a9bd d730 23bd 3fd8 e03d
00000190: 0844 c43d ed12 b6ba 854c 7abe d442 b6bd
000001a0: b358 45be 27fc 813d 9af0 fdbd 18aa 193e
000001b0: 48a6 cabe d085 5e3e 5a8d 93be a7dd 4e3d
000001c0: ded7 453e 95b4 30bc 654a 5e3e bac4 82bb
000001d0: 1876 043d 85a6 0f3e acbf 863d beb7 f6bc
000001e0: bb6b b93c da56 8dbd 8eb4 b9bb 8561 f3bc
000001f0: 4c8b 86be e875 af3b a2f6 64bd 788c a33c
00000200: 138a 27be 57b6 603e 43d7 b53d 0126 27be
00000210: 4d49 da3e 8676 0a3e dd04 d83c 328c 6cbe
00000220: 4f1b 043e b097 8b3d cf21 f6bc e317 6cbe
00000230: 0886 ab3d 38ab 183e c9bc 17be 3f79 e5be
00000240: e823 43bd c43f 4cbd d38a 7ebd b3d3 83bb
00000250: 2316 4c3e d0a6 223d d24e 6abe d99a 95bd
00000260: b7ad c8bc 1700 473e fab5 d1bb 2931 afbe
00000270: 1f05 923c dfb3 79bb 4636 e63b 9317 663e
00000280: 9798 4cbc f783 cb3e 4d0e 37be bbb5 b43d
00000290: 7acc d93d c549 d5bc c934 92be fe91 1bbb
000002a0: 2bfc acbd 6320 943d a50f c13c 70bb 123e
000002b0: e0ce 103e 7104 52be 9665 893d 98c4 44be
000002c0: 7b52 273e f623 15bd b192 33bc 9438 85bc
000002d0: 7b0e 64be f091 d2bb be09 323d 70d1 c53d
000002e0: 7c4d 0a3d 870a 073d e53c fbbd f6f8 8ebc
000002f0: 66df 8f3d 689e 43be 0575 893d f5c6 1ebe
00000300: ff38 f73d 9e91 183e 7e88 9f3d cd70 a13e
00000310: 7970 c93d 141d 07be 9aba 1cbe ec2e 133e
00000320: 9e6b c8bd 7707 24be edd4 233d 0653 ab3e
00000330: ed66 0e3d ca5b 8fbe d77f 2bbe 32af debd
00000340: 6230 df3e 390b 173e 541f 1ebe cb22 3c3e
00000350: e571 bf3e 18a7 893d 0046 a03c 7309 093e
00000360: 9b22 863e c419 47be 7a0a 5a3d 68f0 5f3e
00000370: d6f7 0f3d ff4f 053e 182f 5cbd 006e 743d
00000380: 7909 ab3e 4522 9cbc 3bb6 b3be 559d 863d
00000390: 4414 06be ef67 2cbe c4cf 0fba 7b04 113e
000003a0: ede6 393d 9184 8dbe b6ca b1bd 0199 b0bd
000003b0: ff69 efbc 6c40 043e 2459 863e e0d2 01be
000003c0: f08a 90be bcd5 9a3e 8c25 21bd d00b 40be
000003d0: 243b 623c 400a 80be cef6 e8be 3a50 cc3e
000003e0: 2f6a dbbc 589e 213e 14b8 31be c23d d53d
000003f0: 6308 2f3e e153 8bbe 4c64 93bd 6242 d8be
-0.051127646 0.31702867 0.0029878698 -0.23825523 0.044068225 -0.10040109 -0.22206639 0.13539295
0.008130602 -0.11732249 -0.41328937 -0.24927582 -0.31886557 -0.11293456 0.19288366 -0.007574864
-0.04350019 0.061545484 0.075943306 -0.2226027 -0.5663785 -0.004637717 0.11029305 0.0813148
0.16467828 -0.19714276 0.15589641 0.20777129 -0.007641727 0.20927441 0.045474503 -0.53401846
0.0055733016 -0.26429275 0.011360786 -0.045525618 -0.017570294 -0.14076409 -0.19426355 -0.09774995
-0.058862936 0.26313823 -0.036684018 0.095321305 -0.059755262 -0.20537314 -0.025036316 0.21215355
0.1299062 -0.09965258 -0.09410158 -0.043700255 0.093800634 -0.19259283 -0.20464423 0.08279788
0.17567548 0.23166111 -0.2528122 -0.38968337 0.020985715 -0.071728975 -0.07741775 0.19442499
-0.05306521 -0.15045854 0.004986212 -0.16160668 0.13919044 0.08990963 0.08445052 0.08663646
0.0277767 -0.14262389 0.00267524 0.05160609 0.022955863 -0.5491477 -0.28635675 -0.18430135
-0.27561465 0.2737839 0.02953525 0.055788994 -0.115361735 0.084967464 0.13549066 -0.17354615
-0.2311765 0.061753243 -0.019425385 -0.12724136 0.007955176 0.17641023 -0.37638813 0.08518424
-0.73108673 -0.0827115 -0.0398415 0.10978746 0.095832884 -0.0013891138 -0.24443252 -0.08899465
-0.19272117 0.06346922 -0.12399407 0.15006292 -0.39579988 0.21730733 -0.2881878 0.050504353
0.19320628 -0.010785242 0.21708067 -0.003990737 0.032339185 0.14028366 0.06579527 -0.030116912
0.022634378 -0.06901331 -0.0056672757 -0.029709587 -0.2627815 0.0053546317 -0.05589927 0.019964442
-0.16361265 0.21944557 0.088789485 -0.16323091 0.4263405 0.13521776 0.026369506 -0.23100355
0.12901042 0.068160415 -0.030045418 -0.23055987 0.08375174 0.14909065 -0.1481811 -0.44819066
-0.047641665 -0.0498655 -0.06214411 -0.0040230392 0.1993032 0.039709866 -0.2288163 -0.073049255
-0.024496896 0.19433628 -0.006399867 -0.34217194 0.017824708 -0.0038101596 0.007025513 0.2246993
-0.012487552 0.3974912 -0.17876549 0.08823725 0.10634704 -0.026036153 -0.28555897 -0.0023738141
-0.08446535 0.0723274 0.02356703 0.14329314 0.14141417 -0.20509507 0.06708829 -0.1921562
0.16340058 -0.03641125 -0.010960267 -0.01626233 -0.22271149 -0.0064260885 0.043466322 0.09659088
0.0337653 0.032969024 -0.12267474 -0.017452698 0.07025032 -0.19103396 0.06711773 -0.15505584
0.12071418 0.14899299 0.07789706 0.31531373 0.098359056 -0.13194686 -0.15305558 0.14373368
-0.09786151 -0.16018473 0.039997984 0.3346178 0.034766126 -0.27999717 -0.16747986 -0.108732596
0.435916 0.14750375 -0.15441638 0.18372647 0.37391582 0.06721324 0.019564629 0.13382511
0.26198277 -0.19443423 0.053232647 0.21869051 0.035148464 0.13018797 -0.05375585 0.059675217
0.33405665 -0.01905931 -0.35099968 0.065729775 -0.13093668 -0.16836523 -0.00054859766 0.14161865
0.045386244 -0.27640203 -0.08681242 -0.08622933 -0.029225348 0.129152 0.26239884 -0.12678099
-0.28231 0.3024119 -0.039342448 -0.18754506 0.013808046 -0.2500782 -0.45500797 0.39904958
-0.02678403 0.1578306 -0.17355376 0.1041217 0.17093043 -0.27212432 -0.071968645 -0.42238146

encoder.3.fc2.bias f4 [128]
00000000: eaf2 ec3d 8263 b8be 5385 293e 8c1e 913e
00000010: b194 4dbe 90db ad3d f2e5 f83c 2bf3 26be
00000020: 8f7a 54bd c093 3d3d 0dfb 593e 106f d43d
00000030: 7447 1f3e 3b98 10bd 86d3 b13e 68ca 783e
00000040: 7145 99be b571 263e 97f3 76be 7518 3e3d
00000050: 197c b5bd 41b8 413e 87aa c4bd 1526 583e
00000060: e8df e1bd 8285 0fbe 9568 063e af0c c93d
00000070: 63cb 793d b3e8 5dbe 53b9 81be 475e 193e
00000080: 42d4 3bbe a7b2 3cbe ec80 693d ce35 473c
00000090: b00a 4a3d 6d89 213e eabf 3c3e 0e95 003d
000000a0: 4aed ca3d 6f07 c03d b34b 133e 9d0b 973e
000000b0: f79b 2e3e a8e2 4f3e b6f9 cf3d e8f4 3bbd
000000c0: 0491 cfbb 51c2 363e 05ca 37bf b662 3e3e
000000d0: b3cc 493e 20cb d2bd 6b5d 243d 2268 103f
000000e0: 39c3 f13d 5708 913d c03a e53d ed6a ab3a
000000f0: 982a bcbe 749a b73d 367c 5dbc 128f 0c3e
00000100: d107 8e3d 7f8c 1b3e d959 b4bd 29e3 34bd
00000110: 5f8b 563e 89cd 58bd cd58 e2bc 7197 9b3e
00000120: e2bb b7bd cb18 e1be b0b0 923d c611 8f3e
00000130: d746 6cbd 1919 063e 96c1 7fbe 44af 35be
00000140: 757e ac3e 872c c53e 78be 32be 749d a0bd
00000150: 06fd 003c 7afc 203e a235 243d 6835 d13d
00000160: 296c 493e d55e 223d 0dc9 16be 8e46 2d3d
00000170: 8168 ab3b 7e64 6c3e f61d 6b3e 7236 7c3e
00000180: 8a10 fa3d 6ebc a7be f34d 34bd 59d9 f93d
00000190: 4a7f 5e3d de3d 1bbe a3be a33d d11f 413e
000001a0: 44c3 a13d 84ff 6b3d 753d 14be 1462 b33d
000001b0: 1138 63bc a468 3ebf 228a d43e 0501 273e
000001c0: 0c7b fb3d 6c1c 11bd 934b 1c3e 6fa1 253e
000001d0: 795f bf3d 1f7b 403e 781f cd3d b067 3dbd
000001e0: 5a66 803e 504c ecbe fb14 693e 710b 553c
000001f0: 7b5a c4be 7f63 4e3e c3d9 58bc 34b4 0ebe
0.1156977 -0.36013418 0.16554765 0.28343618 -0.20076253 0.08489144 0.030383084 -0.16303699
-0.051874693 0.046283484 0.21287175 0.10372746 0.15554601 -0.03530143 0.34731692 0.24295962
-0.29935792 0.16254313 -0.2411636 0.046410043 -0.088615604 0.18917944 -0.09602838 0.21108277
-0.11029035 -0.14015773 0.13125832 0.09816872 0.06098498 -0.21670799 -0.25336704 0.1497737
-0.18342689 -0.18427525 0.057007715 0.012158824 0.0493266 0.1577508 0.18432584 0.03139215
0.099085405 0.09376418 0.14384346 0.29501048 0.17051683 0.20301306 0.101550505 -0.045887858
-0.006334426 0.17847563 -0.7179263 0.18592343 0.19706993 -0.10292649 0.040128153 0.56408894
0.11804814 0.07081669 0.11192846 0.0013078131 -0.36751246 0.089650065 -0.013518384 0.13726452
0.069350846 0.15190314 -0.088061996 -0.04416195 0.20951603 -0.05293039 -0.027630234 0.30388978
-0.08971383 -0.43964228 0.07162607 0.27943248 -0.057684746 0.13095511 -0.24976191 -0.1774264
0.3369023 0.38510534 -0.1745547 -0.07842532 0.0078728255 0.15721312 0.04009021 0.102152646
0.19670166 0.03964122 -0.14725132 0.042303614 0.0052309637 0.2308521 0.22960648 0.24630144
0.12210186 -0.32760948 -0.04401965 0.12199659 0.05432061 -0.15160319 0.079953454 0.18859793
0.07898572 0.057616726 -0.14476569 0.08758941 -0.013868348 -0.7437842 0.41511637 0.16308983
0.12279329 -0.035427496 0.15263204 0.16174863 0.09344382 0.18796967 0.10015768 -0.046241462
0.25078088 -0.46151972 0.2276191 0.013003216 -0.3835028 0.20155142 -0.013235512 -0.1393593
